results/COLLAB_GCN.pth (torch, 108370 bytes, 11 tensors)

weight f4 [492, 16]
000000 11 8b 1a be 9f ea c0 bd dc 18 fe bd df 29 91 be
       -0.15092112 -0.094197504 -0.12407085 -0.28352258
000010 f9 5a cd b9 6d ab 5e 3d e1 56 9c bd 51 5a 8c 3e
       -0.00039168427 0.054362703 -0.07633758 0.27412656
000020 09 25 c0 3d 62 7d ae 3d 4c d9 a6 3c 7f e2 88 bc
       0.09382064 0.085200086 0.020367287 -0.016709564
000030 66 3b 71 be 6c 32 ee bc 97 75 85 be 57 b4 1d be
       -0.23557815 -0.029076777 -0.26066276 -0.15400825
000040 28 c7 80 be 71 20 77 be 5c b0 5e c0 a4 fb 8c 3f
       -0.25151944 -0.24133469 -3.4795141 1.1014295
000050 8c c2 b7 3f 16 c1 2f bf cc 55 eb bd 90 02 14 be
       1.4356246 -0.68654 -0.11490974 -0.14454103
000060 de ee cb bf 14 66 d9 bf f6 72 8f 3d c8 97 de be
       -1.5932271 -1.6984277 0.07004349 -0.43475175
000070 69 4d fb 3c bc 37 8b bf 6e 01 dc 3e 80 2e f1 bf
       0.03067656 -1.0876384 0.4296984 -1.8842316
000080 4d 81 fd 3e cd f2 63 be 0c ba 25 c0 39 a3 28 3e
       0.4951271 -0.2226059 -2.5894804 0.16468515
000090 ee 0a e4 3f cc a2 88 bf 3b 42 9c 3d c7 e2 54 3e
       1.7815835 -1.0674682 0.0762982 0.20789634
0000a0 97 8c 15 c0 d5 33 19 c0 be cb 91 be e2 ce cd be
       -2.336706 -2.3937886 -0.28475755 -0.40196902
0000b0 a4 bf 9a 3d 01 af 79 bf d9 94 f2 bd 9c f8 f2 bf
       0.07556084 -0.9753266 -0.11844797 -1.898212
0000c0 b9 28 1f 3d ed fb 2d be e4 15 06 c0 14 05 3d bf
       0.038857196 -0.16990633 -2.095086 -0.73835874
0000d0 d1 34 46 3f 08 ea c8 bf 77 e4 f4 be 69 40 09 be
       0.7742434 -1.5696421 -0.47830555 -0.13403477
0000e0 ad 4a 68 bf 84 57 f9 bf 39 53 0b 3d d9 8d 73 bf
       -0.90738946 -1.9479833 0.034014914 -0.9513832
0000f0 ae 04 fd bd c1 95 bb bf 09 fa 81 bf bd bd 84 bf
       -0.12354408 -1.4655076 -1.015443 -1.0370404
000100 20 9f 31 bf b6 b5 16 bf 3f aa 89 bf a7 42 9c bf
       -0.6938343 -0.5887102 -1.075508 -1.2207841
000110 e9 84 98 3f 55 80 2d bd 0d 1e 0f bf 92 7f 8f bf
       1.1915561 -0.042358715 -0.5590523 -1.1210806
000120 c8 07 9d 3f 91 b5 fc bf 52 1e b2 bd 7e 64 ff bd
       1.2268 -1.974291 -0.086971894 -0.12470339
000130 7e 21 64 bd 74 b4 11 bf af ff 98 bf f5 f2 46 be
       -0.055696003 -0.56915975 -1.1953028 -0.19428618
000140 0e a0 c3 bf e3 cf a9 3e 15 b9 d1 3d 18 86 98 bf
       -1.528322 0.33166417 0.1024038 -1.1915922
000150 09 e1 85 3f 44 69 e7 be 2f 4a 04 bf aa 4f 2a bf
       1.04593 -0.451975 -0.51675695 -0.6652781
000160 3f b9 21 bf 36 99 94 be 82 51 9e bc 36 0d 68 3a
       -0.6317329 -0.2902314 -0.019325975 0.0008852066
000170 d2 51 ee be 9a d5 0e bf a4 71 95 bf a5 b8 61 be
       -0.465468 -0.5579468 -1.1675305 -0.22043093
000180 a3 ef 80 be fb d6 88 bd e5 2d 63 3f 87 ac 13 bf
       -0.25182828 -0.06681629 0.88741904 -0.5768513
000190 7d f2 94 3f 83 eb 2c 3e 68 a7 09 3e 9e 22 9d be
       1.1636502 0.16886716 0.13442767 -0.30690473
0001a0 39 48 4e be a5 43 07 c0 9e ef 16 bd 0c a8 a9 be
       -0.20144738 -2.1135037 -0.03684961 -0.33136022
0001b0 f0 cc 20 bf 57 2c 08 bf f9 81 02 bf e8 86 d8 be
       -0.6281271 -0.5319266 -0.5097957 -0.42290425
0001c0 0b e7 32 bf cd e4 43 bf d9 1e 28 40 09 2d 63 be
       -0.69883794 -0.76521 2.6268828 -0.22185148
0001d0 bf dc 86 3f 37 c6 b3 be fc 69 34 bf cb 5d c0 be
       1.0536116 -0.35112163 -0.7047422 -0.37571558
0001e0 e6 ee aa be fb b0 22 bc e2 d3 42 bf 46 77 6e be
       -0.3338539 -0.009929891 -0.7610456 -0.23287687
0001f0 d7 51 6f 3e c3 c5 6c bf 9c 32 31 bf 80 31 cf bf
       0.23371063 -0.9248926 -0.6921785 -1.6186981
000200 99 d5 d8 be e0 ea 5e be b3 41 bc 3f ff d6 79 bf
       -0.42350462 -0.21769285 1.470755 -0.97593683
000210 dd 6b 81 3f d4 54 74 3e a8 7d f7 be 03 92 1d bf
       1.0111042 0.23860484 -0.48338056 -0.6155092
000220 61 03 37 bf 9b f6 1b 3e 17 1f 11 3e f9 b4 59 3d
       -0.7148953 0.15230791 0.14172016 0.053151105
000230 3f 1c 38 be de 13 db bc 85 c3 39 3e 91 64 da be
       -0.17979525 -0.026742872 0.18140991 -0.4265485
000240 02 ac 88 be 00 75 36 bf 49 3b f9 3f 2a e4 fe 3d
       -0.26693732 -0.7127228 1.9471217 0.124458626
000250 3f 8e 77 3f 67 b3 82 be 57 27 55 bf 9b 3e 50 be
       0.96701425 -0.25527498 -0.8326315 -0.20336382
000260 0f 47 b0 bf 53 5f 5a 3f 2d 50 21 bf 50 b2 31 be
       -1.3771685 0.85301703 -0.63012964 -0.17353177
000270 65 63 82 3e d2 bb f6 be fd a2 e9 3e 80 f5 87 bd
       0.25466457 -0.4819017 0.45632163 -0.06638622
000280 0a 02 8c 3e cb 1c 69 bf 23 4c 8c 3f 13 12 af be
       0.27345306 -0.9105956 1.0960735 -0.34193477
000290 32 1e 98 3f dc 9a 04 bf c7 01 e0 be 4c ad ce 3e
       1.1884215 -0.51798797 -0.43751356 0.4036659
0002a0 31 7d 4c 3e 82 b1 77 3f 43 a6 a5 3e db d7 39 be
       0.19969632 0.9675523 0.3235341 -0.18148749
0002b0 78 e4 96 bc df f7 f3 be 3e dd 39 3d d6 b3 fc be
       -0.01841949 -0.47650048 0.04537701 -0.49355954
0002c0 04 1f 1c be f2 24 ce bc a6 f0 f8 3f 20 f4 71 bd
       -0.15246207 -0.025164101 1.944844 -0.059070706
0002d0 9f f4 10 40 e7 d8 fd be e5 18 82 be 2b 6c 16 3f
       2.2649305 -0.49579546 -0.25409618 0.587588
0002e0 52 d3 8f bd d3 12 bf bd 05 4d 6b 3f b5 7b fc bd
       -0.07022728 -0.09329762 0.919144 -0.12328283
0002f0 c0 4a 16 be 61 65 24 bf 48 25 4d 3e 5e c8 52 bf
       -0.14676952 -0.6421719 0.20033753 -0.82336986
000300 1c df 8f be fe 0d 31 bf b7 80 67 3f 93 d6 41 be
       -0.28099906 -0.69161975 0.9043078 -0.1892951
000310 b7 49 dc 3f 39 ef c5 3e b1 1a 23 3f ad 96 65 be
       1.7209996 0.38659075 0.637126 -0.2242076
000320 9d 73 0e bf 65 43 fb 3d 7c 72 24 bf 8e dd ac 3e
       -0.5564516 0.12268714 -0.6423719 0.33762783
000330 93 ff 2a 3d 65 65 a2 3d 55 e7 c0 3b 0d 76 18 bf
       0.04174764 0.07929496 0.005886952 -0.5955513
000340 dc d8 5e be c4 48 8c bf 66 89 ce 3e 6a 6c 61 3f
       -0.21762413 -1.0959706 0.40339202 0.8805605
000350 4c 83 74 3f 14 1b e1 be 11 e9 41 bf 8b f2 c5 3e
       0.95512843 -0.4396597 -0.75746256 0.38661608
000360 ea 58 4c 3e b9 58 92 3f 98 95 3b bf 7a 48 04 bf
       0.19955793 1.1433326 -0.73275137 -0.5167309
000370 49 06 4d bf ed f8 8c bd ef a3 1f 3f bb 38 ee be
       -0.80087715 -0.06883416 0.6235952 -0.46527657
000380 15 7e 1f bf 64 41 a4 be 21 c0 ac 3e 0f e5 1a bf
       -0.6230176 -0.3208114 0.33740333 -0.60505766
000390 8c b2 19 c0 6c af 32 bf 15 7d 7f bf b6 0f dc be
       -2.4015226 -0.6979892 -0.99800235 -0.42980736
0003a0 22 bd 24 3f 3a 3c b8 3f ae 0c 5e bf a5 36 c6 be
       0.64351094 1.439338 -0.867381 -0.38713565
0003b0 05 17 6f bf 44 34 02 bf 32 59 c7 be c0 6d db 3c
       -0.933945 -0.50861 -0.38935238 0.026785731
0003c0 02 a7 c2 be c6 90 a2 be c3 0d 0a bf 35 4a a9 bf
       -0.38018042 -0.31751078 -0.5392725 -1.3225771
0003d0 79 16 ba 3e 13 8c f6 bc 27 59 48 bf f9 0e d1 bd
       0.3634527 -0.03009609 -0.78261036 -0.10207934
0003e0 0f ad 9b 3e 80 2b 08 bf dc b4 0c bf a8 38 20 bf
       0.3040547 -0.53191376 -0.5496347 -0.6258645
0003f0 2f 47 c0 bf 8b 5b 8f 3e 01 a2 91 be ad 2c 80 3f
       -1.5021724 0.2799953 -0.28443912 1.0013634

bias f4 [16]
000000 fa 6a 2d be 99 24 ac bd e2 c8 51 3e 1a 0d 66 bd
       -0.1693534 -0.08405418 0.20486787 -0.05616484
000010 52 fb a5 be b7 89 bc 3c 88 58 21 be 4f bf 84 be
       -0.32418305 0.023014886 -0.15756428 -0.25927207
000020 4c 3a 2b 3c 27 6f a6 bd 15 00 a4 be 3a 3a 48 3a
       0.010450911 -0.081266694 -0.32031313 0.0007638071
000030 06 a5 8a 3d d1 c4 6b 3e f1 9b 5a bb 3a d7 4a 3e
       0.06769757 0.23024298 -0.0033357108 0.19808665

weight f4 [16, 32]
000000 2d 70 61 3d 8d b0 1c be 51 5a 86 be 6b 00 7b be
       0.05503862 -0.15301724 -0.2624078 -0.24511878
000010 1a f9 8c bd 27 86 ea be 03 ce b0 3e 77 40 ae 3e
       -0.0688345 -0.45805475 0.34532174 0.34033558
000020 d6 0f 3d 3e a4 cd cd be 83 a9 62 3e c8 23 57 3f
       0.18463072 -0.40195954 0.22134976 0.8403897
000030 ca 14 b4 3e 66 95 f1 3d 3c 7f 21 bf 56 35 96 be
       0.3517211 0.117960736 -0.6308477 -0.29337567
000040 75 11 a4 3e d9 f4 a3 3e 8f f9 a2 3e 06 fd 9f 3e
       0.3204457 0.3202274 0.31831023 0.3124773
000050 ef 73 a4 3e a2 86 a4 3e 9b a8 a5 3e 57 ee a4 3e
       0.321197 0.32133967 0.32355198 0.3221309
000060 7a da a4 3e a3 38 a4 3e 19 6c a4 3e c6 aa 9f 3e
       0.32197934 0.3207446 0.32113722 0.31184977
000070 f8 89 a3 3e 08 0f a4 3e de f1 a3 3e 5d bd a3 3e
       0.319412 0.32042718 0.32020468 0.3198041
000080 1c 49 dd bc 0a a6 80 3c 43 8b be 3e 1f f5 3d 3d
       -0.0270124 0.015704174 0.37215623 0.046376344
000090 60 5b cc 3d 3d a6 24 3f 72 8f 1e 3f 4e a9 9f bd
       0.09978366 0.6431616 0.6193763 -0.07795964
0000a0 7e f5 cf ba af 71 c3 be 79 7c 0a 3f 08 af 10 3f
       -0.0015866009 -0.3817267 0.5409618 0.56517076
0000b0 92 c1 1d bf 1a b2 b9 be 10 78 eb be 61 6a 1d be
       -0.6162349 -0.36268693 -0.45990038 -0.15372612
0000c0 08 3c d3 3e 87 24 d2 3e 86 1b d3 3e 91 95 d2 3e
       0.41256738 0.41043493 0.41231936 0.41129735
0000d0 e4 70 d3 3e 47 5a d3 3e 9b ab d2 3e 40 2f d4 3e
       0.41297066 0.41279814 0.4114655 0.414423
0000e0 45 24 d3 3e 9c b5 d3 3e a2 90 d2 3e f1 13 d1 3e
       0.4123861 0.41349494 0.4112597 0.40835527
0000f0 c9 51 d3 3e 27 21 d3 3e 30 80 d2 3e 70 57 d3 3e
       0.41273335 0.4123623 0.41113424 0.41277647
000100 bd b4 04 3e 7b 44 0a be eb 44 3e 3f e1 1e d3 3e
       0.12959571 -0.13502686 0.7432391 0.41234496
000110 ad 4b 5e 3e 85 14 4f bc eb 43 0f bf 0d 8b 61 be
       0.21708556 -0.01263917 -0.5596301 -0.220257
000120 4f 68 d0 3d d7 40 43 3e cc 3b 09 3f 6d ce 0d bf
       0.10176145 0.19067703 0.5360687 -0.55393106
000130 12 77 31 bf af e6 42 3e fe 95 7c bc 1d 43 3d 3e
       -0.6932231 0.19033311 -0.01541662 0.18482633
000140 59 6e c1 3f d7 07 c2 3f 4b a5 c1 3f 4f d3 c0 3f
       1.51118 1.5158643 1.5128568 1.5064486
000150 81 da c1 3f c1 8a c1 3f 43 a8 c1 3f 8e 1d c2 3f
       1.5144807 1.5120469 1.5129474 1.5165269
000160 63 7f c1 3f 40 e8 c1 3f f5 05 c2 3f 6e c0 c0 3f
       1.5117 1.5149002 1.5158068 1.5058725
000170 3a c3 c1 3f 72 80 c1 3f 54 9e c1 3f cc 7b c1 3f
       1.5137703 1.5117323 1.5126443 1.5115905
000180 d1 45 7f be 9c 54 ef bd 91 84 40 bf 20 e0 46 bf
       -0.24928977 -0.1168606 -0.7520228 -0.7768574
000190 e8 78 e2 be d3 e5 57 bf 14 44 21 3f 48 ec 95 3e
       -0.4423287 -0.8433506 0.62994504 0.2928183
0001a0 d9 9a dd 3e cb 41 c1 be 6b 79 37 3c 57 47 8d 3f
       0.43282202 -0.3774551 0.011198382 1.1037396
0001b0 4f c8 88 3f 7e dc b1 3e 30 b9 84 bf 93 6f bb be
       1.0686129 0.34738535 -1.0369015 -0.36608562
0001c0 74 6b 37 3f a5 2f 39 3f 53 3c 38 3f ce ea 33 3f
       0.71648335 0.72338325 0.7196705 0.7028016
0001d0 80 16 38 3f 5b 93 37 3f e5 b0 37 3f 4c 42 39 3f
       0.7190933 0.7170922 0.71754295 0.72366786
0001e0 3c 51 37 3f 76 a6 38 3f 2a 25 39 3f 2b 48 34 3f
       0.7160833 0.72129 0.7232233 0.7042262
0001f0 ff 75 38 3f c3 97 37 3f 9b cc 37 3f 17 6c 37 3f
       0.7205505 0.71715945 0.7179658 0.71649307
000200 cb 9f 68 be d3 27 f6 be 0a 06 60 be 32 1d 0d 3f
       -0.22717206 -0.48077258 -0.21877304 0.55122674
000210 0a 01 2b bf 68 56 6b 3e 4d 1a 2e 3e 41 81 5f bf
       -0.6679846 0.2298218 0.1700222 -0.873066
000220 c6 75 4a bf eb a2 5a 3f 75 63 f2 3e 9e d4 c6 be
       -0.7908596 0.85404843 0.47341505 -0.3883409
000230 13 d4 31 3e bf d2 9e be 3a fd f0 be 3a 67 c9 3e
       0.17366056 -0.31020162 -0.47068197 0.39336568
000240 35 eb 06 3f 28 da 06 3f fc c3 06 3f e0 f6 06 3f
       0.5270265 0.5267663 0.526428 0.5272045
000250 be fd 06 3f 7f d0 06 3f 98 26 07 3f b0 f3 06 3f
       0.5273093 0.5266189 0.52793264 0.5271559
000260 c1 ee 06 3f 93 b9 06 3f 07 03 07 3f dd d2 06 3f
       0.5270806 0.52626914 0.52738994 0.526655
000270 1b cf 06 3f 12 e0 06 3f 71 00 07 3f e4 e4 06 3f
       0.5265977 0.52685654 0.5273505 0.5269301
000280 33 be 56 bd be b6 b1 3e f1 fa b6 3e ff 49 dd be
       -0.05242748 0.34709734 0.35738328 -0.43220517
000290 67 ea 93 3e 6d 2e 94 bd b4 04 21 bf fe a7 03 bc
       0.28889772 -0.072354175 -0.628978 -0.008035658
0002a0 ff 72 e1 bc f6 90 fd be b3 6e 97 3e 14 00 e8 be
       -0.027520655 -0.4952466 0.29576644 -0.4531256
0002b0 2d 83 a8 be 70 67 df bd a8 07 14 be c8 ac 03 3f
       -0.3291258 -0.10908401 -0.14456046 0.5143552
0002c0 44 36 fe 3e e2 5c fd 3e cf e7 fc 3e d0 80 fd 3e
       0.49650776 0.49484926 0.49395606 0.4951234
0002d0 b5 76 fe 3e 8a 18 fd 3e 16 1a fe 3e 16 f7 fe 3e
       0.4969994 0.49432784 0.49629277 0.49797887
0002e0 eb b5 fe 3e 12 c9 fe 3e 75 63 fd 3e d7 4f fa 3e
       0.49748167 0.4976278 0.49489942 0.48889038
0002f0 17 78 fd 3e 62 3a fe 3e 3b 05 fd 3e 18 00 fe 3e
       0.49505684 0.49653918 0.49418053 0.49609447
000300 9c d7 46 be 4f c0 23 3f 74 59 76 3e 81 6c fc be
       -0.19418186 0.63965315 0.24057561 -0.49301532
000310 af 8b f4 3d 20 85 45 bc d0 34 81 3f 3b a6 9c 3d
       0.11940705 -0.012055665 1.0094242 0.076488934
000320 f4 a5 19 be 82 36 9e bf 3f 6f 18 3f 0e 71 8e 3f
       -0.15004712 -1.2360384 0.5954475 1.1128252
000330 c8 a4 ad be 9c f0 f0 be 96 43 51 bf aa 6b 9a be
       -0.3391478 -0.4705857 -0.8174375 -0.30160266
000340 76 21 a8 3e 02 3b a8 3e 39 71 a6 3e 5c de a5 3e
       0.3283803 0.3285752 0.32508257 0.3239621
000350 fd 20 a9 3e bc 99 a6 3e e1 81 a9 3e cb 98 a8 3e
       0.3303298 0.32539165 0.33106902 0.32929072
000360 2f a6 a9 3e 93 c8 a9 3e f9 2d a9 3e f0 2c a5 3e
       0.331346 0.33160838 0.33042887 0.32260847
000370 e4 67 a7 3e 8f a4 a8 3e f9 a4 a7 3e 41 33 a8 3e
       0.3269645 0.32938048 0.32743052 0.32851604
000380 fb 72 3c 3e 6d 0c e5 3d 57 9e 92 be cf 99 1f bf
       0.18403237 0.11184011 -0.2863643 -0.6234407
000390 93 6c a0 3d 16 66 63 bf 19 80 72 be d3 86 2a 3e
       0.07833209 -0.88827646 -0.23681678 0.16652994
0003a0 49 42 b2 3e af 0e 00 bf 5f 31 3f 3c b5 10 9f 3e
       0.34816197 -0.50022405 0.011669486 0.31067434
0003b0 9c fe e2 3e fb f8 ee 3e 89 ba f0 be 27 ea 84 3e
       0.44334877 0.46674332 -0.47017315 0.25959894
0003c0 f2 89 a1 3e d2 aa a1 3e 57 01 a1 3e 8b ff 9e 3e
       0.31550556 0.31575638 0.31446335 0.3105434
0003d0 4d 43 a2 3e 6f d6 a1 3e bb ab a2 3e c8 4f a2 3e
       0.3169197 0.31608912 0.31771645 0.31701493
0003e0 ac e0 a1 3e 9e df a1 3e 5b fc a1 3e 6f b8 9e 3e
       0.31616724 0.3161592 0.31637844 0.31000087
0003f0 f0 71 a1 3e eb 93 a1 3e 0d 91 a1 3e 7d 7a a1 3e
       0.3153224 0.31558165 0.31555977 0.31538764

bias f4 [32]
000000 6a 0f 37 bc fe 30 0a 3e 11 7c c5 be 33 bd a2 be
       -0.011173109 0.13495252 -0.38571218 -0.31784973
000010 8a e6 09 bd 16 9b af bd 97 bf 6d 3e ce de ab 3e
       -0.033667125 -0.08574502 0.23217617 0.33568424
000020 d2 c1 3d 3e d0 da 19 bc 25 ac b7 be 0e 64 87 3e
       0.18530968 -0.009390548 -0.35873523 0.26443523
000030 d9 8c 93 3e 22 bd 1f 3d ba 81 54 3d 35 1c 80 be
       0.28818396 0.03899873 0.05188153 -0.2502152
000040 d9 69 38 40 b1 8b 38 40 c7 4d 38 40 d4 04 38 40
       2.8814604 2.883526 2.8797472 2.8752947
000050 16 81 38 40 e4 48 38 40 d2 74 38 40 e6 a9 38 40
       2.8828788 2.879449 2.8821301 2.8853698
000060 c8 79 38 40 47 6f 38 40 ce 7d 38 40 94 13 38 40
       2.882433 2.8817918 2.8826785 2.876195
000070 b5 56 38 40 71 63 38 40 cc 27 38 40 cd 73 38 40
       2.8802922 2.8810694 2.877429 2.882068

feat_mask f4 [492]
000000 3c 71 51 3f ee a6 69 40 db cc 69 40 fb e8 45 40
       0.81813407 3.6508136 3.6531284 3.092345
000010 78 0d 34 40 44 85 30 40 b1 ef 27 40 7b 8d 3f 40
       2.813322 2.758134 2.6240046 2.9930103
000020 6e 7c 29 40 ee 5f 34 40 a6 36 2b 40 90 12 36 40
       2.6482196 2.818355 2.6752105 2.844883
000030 16 c6 27 40 cc c3 2b 40 41 20 34 40 3d 6e 3a 40
       2.6214652 2.6838255 2.8144686 2.9129784
000040 a9 b9 45 40 95 99 20 40 04 65 37 40 ed a2 33 40
       3.0894568 2.509374 2.8655405 2.8068192
000050 db 0d 3b 40 4f 6b 2f 40 49 e2 1f 40 85 1a 1b 40
       2.9227207 2.7409246 2.4981863 2.4234936
000060 6c 88 4f 40 5e 48 38 40 bd f4 3f 40 4e db 39 40
       3.2427015 2.879417 2.9993126 2.9040103
000070 dc 57 34 40 44 7c 31 40 d6 64 56 40 15 df 27 40
       2.8178625 2.7732096 3.3499045 2.6229908
000080 26 4f 17 40 ea dd 2a 40 ba 77 34 40 37 1a 22 40
       2.3642058 2.6697946 2.8198075 2.53285
000090 6d 3d 11 40 7f 93 1f 40 ac c4 14 40 6d bf 4e 40
       2.2693741 2.4933774 2.324504 3.2304337
0000a0 5c ad 2f 40 90 29 07 40 db b5 26 40 81 83 23 40
       2.744956 2.1119118 2.6048496 2.5549014
0000b0 3f f8 19 40 d0 93 0e 40 e5 e7 21 40 fa c2 31 40
       2.4057767 2.2277718 2.5297787 2.7775254
0000c0 6e 59 2d 40 f5 f1 24 40 4b ca 19 40 aa 8f 48 40
       2.7085834 2.577268 2.402972 3.1337686
0000d0 a7 9f 23 40 34 bd 40 40 67 4f 1a 40 33 91 23 40
       2.5566194 3.011548 2.4110963 2.5557373
0000e0 1c 9d 22 40 9e e3 1a 40 40 c1 1a 40 b0 b6 0d 40
       2.5408392 2.4201427 2.418045 2.2142754
0000f0 6f 9a 79 3f 6d b3 ff 3f b8 30 e7 3f fd 41 47 40
       0.9750127 1.9976631 1.8061743 3.1134026
000100 46 86 91 3f 29 46 38 40 9c f3 c7 3f 8a d7 92 3f
       1.1369102 2.8792822 1.5621219 1.1472027
000110 b5 0f b6 3f 64 18 28 40 a0 13 a6 3f 08 35 73 3f
       1.4223543 2.6264887 1.2974739 0.95002794
000120 e8 a8 9f 3f 6a ab 83 3f 0a dc 8f 3f 32 b3 5e 3f
       1.2473421 1.0286686 1.1239026 0.8699218
000130 1a a5 78 3f da 17 2f 40 3c e2 6b 3f 1d 30 71 3f
       0.97126925 2.7358308 0.9214208 0.9421404
000140 28 83 6a 3f 7f 8e 58 3f 76 c3 76 3f 81 0e 89 3f
       0.9160638 0.8459243 0.96392 1.0707551
000150 75 4a 78 3f ab cf 63 3f b3 5f 40 3f 02 c6 43 3f
       0.9698861 0.8898875 0.75146025 0.7647401
000160 dc fe 62 3f d5 4a 12 40 c6 cf 2d 40 f7 e9 59 3f
       0.88670135 2.2858174 2.7158065 0.8512263
000170 4d a7 48 40 fd d4 5b 3f 32 16 5d 3f 8f b5 51 3f
       3.1352112 0.8587187 0.8636199 0.8191766
000180 b4 f6 49 3f c2 7b 64 3f ec b7 32 40 01 20 49 3f
       0.78892064 0.8925134 2.7924757 0.7856446
000190 71 a1 47 3f 67 f2 24 3f 68 7b 5c 3f eb b1 6a 3f
       0.77980715 0.64432377 0.86125803 0.9167773
0001a0 28 6e 5d 3f 16 12 91 3f 3d 88 5e 3f e9 66 80 3f
       0.8649621 1.1333644 0.86926633 1.0031406
0001b0 34 ab 45 3f dc 09 72 3f 8c f2 6e 3f 10 b2 77 3f
       0.7721436 0.94546294 0.9333885 0.96756077
0001c0 c9 c9 6b 3f 2c e9 66 3f dc b6 7a 3f 48 b8 4f 3f
       0.92104775 0.9019954 0.9793527 0.81140566
0001d0 76 32 62 3f 5a 64 67 3f a9 c7 74 3f ea 69 64 3f
       0.8835825 0.903875 0.9561716 0.8922411
0001e0 81 5a 59 3f 11 ff 59 3f a3 e8 57 3f 46 d3 78 3f
       0.84903723 0.85154825 0.8433935 0.9719738
0001f0 c4 ba 61 3f 72 86 68 3f 49 f7 76 3f ce ce 65 3f
       0.88175607 0.9083015 0.9647108 0.89768684
000200 a3 61 72 3f 76 a2 68 3f 3c 5f 6d 3f 44 e1 7b 3f
       0.9468023 0.90872896 0.9272344 0.98390603
000210 71 f9 3e 3f b2 93 7a 3f dd 3e 55 3f c6 3e 6a 3f
       0.7459937 0.97881615 0.83299047 0.91502035
000220 f2 d3 69 3f 90 e7 5b 3f 3f d9 6d 3f 83 c8 80 3f
       0.9133903 0.8590021 0.92909616 1.0061191
000230 51 14 6d 3f ee 77 56 3f 29 5b 62 3f ce e3 60 3f
       0.92609125 0.8377675 0.8842035 0.878476
000240 f9 bf 6f 3f 92 bf 4d 3f d8 ea 4b 3f a0 60 5b 3f
       0.936523 0.8037044 0.7965522 0.85694313
000250 3e 97 60 3f 32 a2 7a 3f c2 b0 5f 3f b4 c0 41 3f
       0.8773078 0.9790374 0.87379086 0.75684667
000260 31 b8 74 3f ad 75 57 3f 37 65 79 3f f0 07 78 3f
       0.95593554 0.84163934 0.97420067 0.9688711
000270 28 87 5a 3f fa e6 60 3f c5 2a 6b 3f 3e e6 5d 3f
       0.8536248 0.8785244 0.91862136 0.86679447
000280 62 43 67 3f f7 de 3d 3f b9 ab 3b 3f f5 56 59 3f
       0.90337193 0.7416834 0.733089 0.8489831
000290 4b 1c 5e 3f 5b f6 5c 3f b4 60 5a 3f cf 8a 82 3f
       0.8676192 0.8631341 0.8530381 1.0198611
0002a0 16 d0 68 3f 30 57 61 3f 48 cc 63 3f 03 c5 77 3f
       0.90942514 0.8802366 0.88983583 0.9678499
0002b0 10 e5 59 3f 89 7c 41 3f b3 6c 5e 3f 01 eb 7d 3f
       0.85115147 0.7558065 0.8688461 0.9918671
0002c0 b6 d9 5d 3f 0e f8 72 3f 72 2d 54 3f cd fa 57 3f
       0.86660326 0.9490975 0.82881844 0.84367067
0002d0 81 f1 59 3f 66 ef 44 3f 51 6a 5e 3f dc 26 61 3f
       0.8513413 0.76927793 0.86880976 0.8794992
0002e0 1f e7 6b 3f c9 7d 7b 3f 38 86 57 3f ef f2 56 3f
       0.9214954 0.9823881 0.84189177 0.8396444
0002f0 8a 62 5d 3f 78 7a 58 3f 18 51 45 3f a6 1c 70 3f
       0.86478484 0.8456187 0.77076864 0.93793714
000300 e9 10 62 3f a3 b7 59 3f d8 bf 53 3f 54 c1 57 3f
       0.8830705 0.8504583 0.82714605 0.8427937
000310 c0 43 74 3f ff d8 5d 3f e0 b9 46 3f ec e8 5b 3f
       0.9541588 0.86659235 0.7762737 0.85902286
000320 0d e8 4d 3f a9 c8 45 3f 86 c9 45 3f 4b ba 60 3f
       0.80432206 0.7725931 0.77260625 0.8778426
000330 72 c0 6a 3f fd 5a 6a 3f 5a 08 3e 3f 12 74 62 3f
       0.916999 0.9154509 0.74231493 0.8845836
000340 59 f7 58 3f 40 d9 6b 3f 11 92 60 3f f7 e3 72 3f
       0.8475242 0.9212837 0.8772288 0.94879097
000350 8d 9d 61 3f a8 e7 59 3f fb 3b 55 3f 4a af 68 3f
       0.8813103 0.85119104 0.8329465 0.9089247
000360 af 3c 5b 3f da 2c 63 3f 1e 8d 76 3f 03 8b 6d 3f
       0.8563947 0.88740313 0.9630908 0.9279024
000370 e9 7e 53 3f 31 9a 5a 3f 66 0f 53 3f b3 6f 75 3f
       0.82615525 0.8539153 0.8244537 0.95873564
000380 89 ab 38 3f f7 d8 62 3f 7a 26 79 3f 13 c5 5d 3f
       0.7213674 0.8861231 0.97324336 0.86628836
000390 c7 79 6d 3f db 55 6c 3f 48 e2 60 3f b9 ad 4b 3f
       0.9276394 0.92318505 0.8784528 0.79561955
0003a0 fa 60 5d 3f 24 96 69 3f da 8e 56 3f 60 d4 54 3f
       0.864761 0.9124472 0.83811724 0.8313656
0003b0 11 30 50 3f c5 c0 67 3f 14 f7 35 40 8c 94 91 3f
       0.81323344 0.9052852 2.8432055 1.1373458
0003c0 ac 76 81 3f 12 44 61 3f ec 6f 62 3f aa 2b 73 3f
       1.0114341 0.8799449 0.8845203 0.949885
0003d0 b0 04 6a 3f 26 5a 4e 3f 4b 76 5f 3f de b3 66 3f
       0.914134 0.80606306 0.87289876 0.90118206
0003e0 9a 49 81 3f 1b 98 60 3f 1a 97 6b 3f 78 79 7b 3f
       1.0100586 0.87732095 0.9202744 0.9823222
0003f0 75 d5 52 3f 01 3e 6d 3f 53 c4 64 3f 2e 23 67 3f
       0.8235696 0.92672735 0.89362067 0.90288055

weight f4 [16, 492]
000000 00 87 e3 3c 20 b9 28 bd 19 79 1d bc 68 d2 11 bc
       0.027774334 -0.041192174 -0.009611391 -0.008900262
000010 93 dc bf bc d3 2f d4 3b 65 a1 40 3a 4a e2 69 3b
       -0.023420608 0.0064754277 0.00073482684 0.0035687857
000020 b8 6a 38 3d 4c 28 fc 3c c4 cb d2 3c a8 64 ce 3c
       0.04502365 0.030780934 0.025731929 0.025194481
000030 17 2c 31 3d 85 37 27 bd 5e 67 43 bc 6a 29 11 3c
       0.043254938 -0.040824432 -0.0119265 0.008859972
000040 2b 75 6d 3c 07 d0 f6 bc ab 2e 75 ba 5d 45 1e 3d
       0.014493267 -0.030128492 -0.00093529624 0.03864037
000050 30 75 e4 3c da 58 e2 bc 29 4b 89 bc e7 aa c6 3b
       0.02788791 -0.027630258 -0.016759472 0.0060628536
000060 e8 40 07 bd af 2a 38 ba 47 58 da bc fb 83 d5 3c
       -0.033020884 -0.00070254033 -0.026653422 0.02606391
000070 4b 8f e3 bc 26 4b 3e bc 1d de dc 3c 33 bb 2e bc
       -0.027778288 -0.0116145965 0.02696138 -0.010664749
000080 bd b3 27 3d 32 62 b2 3c 5f 3f f7 bc 80 9e 17 3d
       0.040942896 0.021775339 -0.030181585 0.03701639
000090 80 b7 12 3d a3 e4 77 bc ee 56 df 3c a6 ec db bc
       0.03581953 -0.015130195 0.027263131 -0.026846241
0000a0 42 cd 22 bd 22 17 18 bd b0 7d 2c 3d 19 04 d3 3c
       -0.03974653 -0.037131436 0.042112052 0.02575879
0000b0 c9 ea aa bc 8c 5b c2 bc 0b 10 20 bd df 22 ea bb
       -0.020863907 -0.023725294 -0.0390778 -0.0071452702
0000c0 d1 82 26 3d ef 9b f3 bc 75 dc 25 bd 4b 39 0e bd
       0.0406521 -0.02973744 -0.040493447 -0.034722608
0000d0 4b 68 13 bc 27 46 0b 3d 20 5c e8 3c 97 aa 09 3c
       -0.008997033 0.03400245 0.028364241 0.008402488
0000e0 62 d9 db bc 8d fa aa 3c 1f 12 a3 3c e1 b8 2c bd
       -0.026837055 0.020871425 0.019906102 -0.0421685
0000f0 2a 08 24 3d 54 24 43 3c 2c 1d 17 bd 6b e5 01 bc
       0.04004685 0.011910517 -0.036893055 -0.007928233
000100 ed f9 00 bb 90 cd db 3c bc 2e e2 3c c3 d7 ee bc
       -0.0019680217 0.026831418 0.027610175 -0.029155618
000110 42 1a c9 bc 9f e7 48 3c 00 bf b0 bc 98 f9 06 bc
       -0.024548654 0.012262254 -0.02157545 -0.008238219
000120 ec 32 7b 3c 41 65 15 bd 6b 4b 9a bb 79 78 a0 3c
       0.015331965 -0.036473516 -0.0047086976 0.019588696
000130 f7 2e 32 3d 31 86 22 3d fa 12 df 3c b4 52 09 bd
       0.04350182 0.039678756 0.027230728 -0.033526137
000140 08 94 20 bd d9 18 c1 bc 7a 22 31 bc 68 34 c4 bc
       -0.039203674 -0.023571419 -0.0108114425 -0.02395077
000150 fb ea 19 3d 47 a9 92 3c 60 34 d7 3c 42 c2 04 3d
       0.03757761 0.017902983 0.026270092 0.03241182
000160 04 3e 8f 3c ca 4a d8 bb be 21 1e 3d 4f 59 92 3c
       0.017485626 -0.0066007124 0.038606398 0.017864851
000170 e5 ee c3 bc 8f 51 13 bd 14 da 50 bc c3 d1 32 3d
       -0.023917625 -0.035966452 -0.012747306 0.043657076
000180 2a 15 16 3d 44 6a 9d 3c 63 c8 21 3d 98 0e 00 bd
       0.036641277 0.01921571 0.039497744 -0.031263918
000190 0a 1b 46 3b 7d b2 80 bc 65 f5 45 3c d4 b7 0d bc
       0.003022852 -0.01571011 0.012082432 -0.008649785
0001a0 18 e0 fe bc 42 76 a9 3c dd 4d 60 3c e4 0f c2 3c
       -0.031112716 0.020686273 0.013690439 0.023689218
0001b0 6b c3 ca 3c 8b 32 10 bd 09 0c b7 bc 47 5d 59 b9
       0.024751386 -0.03520445 -0.022344606 -0.00020729481
0001c0 8d 1c 27 bc 11 49 79 bc 66 fe 93 bc fe c9 10 bc
       -0.010199678 -0.015215174 -0.018065643 -0.008837221
0001d0 ba 6b 5c 3c af 07 74 bc f6 09 16 3d c5 36 0c 3c
       0.013453418 -0.01489441 0.036630593 0.00855798
0001e0 1d 64 9a 3c d3 1f 17 bd c9 cc 0c 3a 35 fa fc 3c
       0.018846566 -0.036895584 0.00053710915 0.030881027
0001f0 be 6d 5c bc a1 95 a9 bc 6e 20 0c bb 29 42 e6 bc
       -0.013453899 -0.020701231 -0.0021381634 -0.02810772
000200 f8 99 38 bd ff 4f 22 bd 32 2f 35 bb c3 8d bd bb
       -0.04506871 -0.03962707 -0.0027646539 -0.0057847216
000210 1f d2 29 bd 4f 15 10 3d c6 ad 1b 3d 0d f1 27 bb
       -0.041460153 0.03517657 0.03800752 -0.0025625855
000220 ad e6 2b 3d 55 97 23 3c 11 65 ea 3c d6 20 6c 3b
       0.041968036 0.009984811 0.028612645 0.0036030314
000230 27 7f bc bc 73 9b 1e bd c6 54 25 3d 71 16 cd 3c
       -0.02300985 -0.038722467 0.04036405 0.025035115
000240 63 02 22 3d 8c a3 7c 3c 5f 78 b5 bc 65 1e 0a 3d
       0.039553057 0.015419852 -0.022152124 0.033720393
000250 68 9a ae bc 8e ff 18 bd af 51 83 3c 58 87 67 3b
       -0.021313861 -0.03735309 0.01603016 0.0035328474
000260 c9 0b 8e 3c 53 7d 2a 3d fe de 92 bb b4 99 aa bc
       0.017339604 0.041623425 -0.004482149 -0.020825244
000270 5e 03 d5 3c 42 21 36 3d 26 55 d5 3c 7e e5 e6 bc
       0.026002582 0.04446531 0.026041579 -0.028185602
000280 2c 33 c8 3c b7 56 37 3d 8f b3 df bc e6 d0 e2 3c
       0.024438463 0.044760432 -0.0273073 0.027687501
000290 7d 4d e3 bc 96 67 f2 bc e7 d7 06 bd ca f6 0c bd
       -0.02774691 -0.02959041 -0.032920744 -0.034415044
0002a0 c7 e9 b7 bc ca 6d bf 3b 8a 7f 92 3c db e6 2c bd
       -0.02245034 0.0058419453 0.017883081 -0.04221235
0002b0 b8 64 2e bd bb 5d 3a 3c 70 3e ce 3c 66 11 26 3d
       -0.04257652 0.011374886 0.025176257 0.040543936
0002c0 94 50 ba bc 7f 22 04 bb e0 7e 24 3d d8 60 17 bd
       -0.0227435 -0.0020162163 0.04016006 -0.03695759
0002d0 06 c1 63 3b c9 64 c2 bc e4 fe c6 3b 99 53 96 3c
       0.0034752502 -0.023729699 0.006072866 0.01835041
0002e0 79 ff 35 bd bf 39 21 3b c4 0a b6 bc 83 8f 12 3d
       -0.04443309 0.002460107 -0.02222193 0.035781395
0002f0 8f 07 09 bc e9 c6 e7 3b f4 95 24 bc 48 9d c9 3c
       -0.0083636185 0.0070732725 -0.010045517 0.02461113
000300 0d 62 f0 3c e8 22 ec bb 5c ab 10 3d a9 5c 2e bd
       0.02934363 -0.0072063096 0.03531967 -0.042568836
000310 d1 dc 83 bc 71 7d 25 bd 82 82 cd 3c 7d dc 1c 3c
       -0.016096504 -0.040402833 0.025086645 0.009574053
000320 8d 74 94 bc ac 4d 9f bc 2f 21 30 3d d9 ed aa 3a
       -0.018121982 -0.019446217 0.043000396 0.0013040855
000330 26 2b 8c 3c e9 ac e7 3c b0 16 17 3d 50 91 e4 bc
       0.017110419 0.028280692 0.03688687 -0.027901322
000340 a5 34 42 3c fe 67 08 3d 9d 96 96 ba 2d 4e 7f bc
       0.011853372 0.0333023 -0.0011488978 -0.015582603
000350 e7 74 ac 3b 81 d0 f3 3b 0f cb 37 bd 6e 87 cb bb
       0.0052629593 0.007440627 -0.044871386 -0.006211213
000360 f2 02 96 bc 09 87 7d bc d9 93 f9 bc 47 64 a1 bc
       -0.018311951 -0.015474089 -0.030466007 -0.019701136
000370 ab f6 2b 3b 13 ba 11 3d e8 3c cb bb 56 f9 41 bb
       0.0026239555 0.035577845 -0.006202329 -0.0029598079
000380 2e 43 1a 3d 74 e1 34 bd 6d 44 d7 3b b6 69 09 bd
       0.037661724 -0.04416032 0.0065694363 -0.03354808
000390 14 1d 4b bc 76 87 2e 3d 63 4a a0 3c 88 9b 93 bb
       -0.0123970695 0.042609654 0.01956672 -0.0045046248
0003a0 e2 1c b2 3c db 78 01 3c c1 f6 a2 bc b7 91 a6 bb
       0.021742288 0.007902349 -0.019893052 -0.0050832885
0003b0 bb 52 1d 3d 19 b8 36 3d 61 99 12 3d 3d 0f 27 3d
       0.038408976 0.044609163 0.035790805 0.040786017
0003c0 2c 8b ea bb be 07 dc 3c 67 7b 84 bb b4 27 d3 3c
       -0.007157704 0.02685916 -0.004043031 0.025775768
0003d0 02 12 f1 bc 9d 5c d0 3b 80 89 81 bc 2c a1 fb 3b
       -0.029427532 0.0063586966 -0.015812635 0.0076791253
0003e0 39 84 21 bd 34 c5 03 3d 14 d1 b7 3c 40 a7 83 3c
       -0.039432738 0.03217049 0.022438563 0.016070962
0003f0 66 e0 e4 3c 25 76 dc bc 28 7b 1c bd 20 3e 34 3d
       0.027939033 -0.026911804 -0.03820339 0.04400456

weight f4 [16, 492]
000000 61 fc a9 bc 06 45 9c bc df a4 59 bb e7 b1 85 3c
       -0.020750226 -0.019075882 -0.0033209843 0.016320182
000010 7d 95 83 3c ea 1e d0 3c 5c 59 60 3c 84 96 20 bd
       0.016062493 0.025405366 0.01369318 -0.039206043
000020 b2 d4 0e bd 2c cb d1 bc 99 08 68 bb 15 6a 27 bd
       -0.03487081 -0.025609575 -0.0035405515 -0.040872652
000030 37 31 89 bc 02 23 32 3d fc 3e 65 bc 58 2d f3 bb
       -0.0167471 0.043490417 -0.013992067 -0.007421177
000040 87 58 fc 3c d6 09 10 bd 90 70 10 bd c5 fe 18 3c
       0.030803932 -0.03516563 -0.035263598 0.009338086
000050 27 59 d7 3c 46 da 22 3d 4b 40 ca 3c e2 af ef 3c
       0.026287628 0.039758943 0.02468886 0.029258672
000060 a3 8f 16 3d 1b 77 0a 3d d7 6a fb bc 6d 8f fa bb
       0.036758076 0.033804994 -0.030690594 -0.007646492
000070 7e fc 73 bc 50 fa 35 3d 68 20 8f bc 5d 5d ca 3c
       -0.014891742 0.04442817 -0.017471507 0.024702722
000080 38 ab 2f bd b3 78 2a 3c 5b b0 87 bc 27 76 c6 3b
       -0.042887896 0.0104047535 -0.016563585 0.0060565653
000090 6f 2f b7 bc 69 8d 27 3d a6 09 3a 3b f3 c0 8f 3c
       -0.022361485 0.040906344 0.0028387099 0.01754806
0000a0 18 83 35 3b 76 8f 45 3b 66 6a 0d 3b fe d2 2c 3d
       0.0027696546 0.0030145324 0.002157831 0.042193405
0000b0 dc 6d 10 bd 54 d5 2e bd 56 cf 7e bb f4 c4 ad 3c
       -0.03526102 -0.042683914 -0.0038880906 0.021212079
0000c0 dc 6e bd 3a 55 2d 2e 3d 7b d9 da 3c 1f eb 0b bc
       0.0014452594 0.0425237 0.02671503 -0.008539944
0000d0 37 5c ba bc 61 d9 f5 bc 03 93 28 3d 50 68 08 bb
       -0.02274905 -0.03001088 0.041155826 -0.0020814128
0000e0 9f f9 92 bc 39 4f cc bc c7 c3 c8 3c 90 e7 a4 bc
       -0.017941294 -0.02494012 0.024507416 -0.020129949
0000f0 bd 71 43 3b e3 5d 94 3c fd ec c2 3c 71 66 13 3d
       0.0029822432 0.018111175 0.023794645 0.035986368
000100 19 73 18 3d 9c f4 68 bc 8d b2 ba bc 54 bf f6 bc
       0.03721914 -0.014218476 -0.022790218 -0.03012053
000110 ec 2b cb 3c 14 12 8e bc 0b c4 4e 3c 5f f8 d3 bb
       0.024801217 -0.017342605 0.0126199825 -0.006468817
000120 ae 7b 1a bc 3d 84 af 3c 2c 44 26 3c b3 c5 30 bd
       -0.009428902 0.02142536 0.010148089 -0.04315729
000130 b5 6f e5 3b 93 3d 94 3c c5 79 a1 bc 20 c3 ab 3c
       0.007001842 0.018095767 -0.019711385 0.020967066
000140 b0 90 1e 3d 5d ed fb 3c c5 e4 7a 3c a5 4a 2b bd
       0.038712204 0.030752832 0.015313332 -0.041819233
000150 84 c2 1e 3d af 3c c1 3c 94 a0 b6 bc 9a 4e 10 bd
       0.038759723 0.023588507 -0.022293366 -0.03523121
000160 aa ba 35 3d 15 69 f8 3c e6 9b dc 3a 4d 54 1f 3d
       0.04436747 0.030323545 0.0016831129 0.038898755
000170 06 ba 4e bc f7 bb cd 3a 2b 5e 27 3c 7f 30 b1 bc
       -0.012617594 0.0015696277 0.0102153225 -0.02162957
000180 87 06 17 bd b7 02 3f 3c a0 cd 10 bd 0f 66 6c bc
       -0.03687146 0.011658362 -0.03535235 -0.01442863
000190 7b 8b 1e 3d 97 84 5c 3c 40 09 02 bd ff 4e 2e bd
       0.038707238 0.013459346 -0.031747103 -0.042555805
0001a0 bd f2 06 3d c4 e4 c4 3c 84 84 0e bd e8 2c 11 3c
       0.032946337 0.024034865 -0.034794345 0.008860804
0001b0 55 34 21 bd a5 2f b0 3c 63 fd 2e 3d b8 fb f2 3c
       -0.03935655 0.021507094 0.042722117 0.029661044
0001c0 ec 7a 05 bd df 01 06 bd d2 0d 89 bc ef 36 c6 3c
       -0.03258793 -0.03271663 -0.016730223 0.024196116
0001d0 37 9a 1d bd 21 e9 15 bd 1e 3b b2 bc cc 98 34 3c
       -0.03847715 -0.036599282 -0.021756705 0.011022758
0001e0 4e ed af 3c 4d 6f 26 3d 30 8a 02 3d bc cd 03 3d
       0.02147546 0.04063349 0.031870067 0.032178625
0001f0 92 ab 06 3d 6c 5f ee bc ed 27 c7 bc 3f 49 0b ba
       0.032878466 -0.029098235 -0.02431103 -0.0005313344
000200 64 39 12 bd 40 37 8f 3c b1 15 a8 bc c0 b4 38 bc
       -0.035699263 0.0174824 -0.020518156 -0.011273563
000210 8e f8 fc bc 00 ee fc bb a0 85 5c bb 7d 17 00 3d
       -0.030880239 -0.0077188015 -0.0033648983 0.0312724
000220 73 be 0a bd 4b 6b c3 bc 05 ec 1d 3d 4f d8 18 3d
       -0.033873033 -0.023854872 0.038555164 0.037315663
000230 9f 1f 1c bc 59 6c 04 bd 58 25 ca 3c 47 52 1a bd
       -0.009529023 -0.03232989 0.02467601 -0.037676122
000240 df 37 00 bd b7 81 c2 3b 19 65 55 bc 96 de af 3c
       -0.031303283 0.0059358734 -0.013024592 0.021468442
000250 35 55 2a bd f0 d1 51 bc f0 75 98 bc eb f8 0c bd
       -0.041585166 -0.012806401 -0.018610924 -0.034417074
000260 ef d0 d6 3c 99 14 13 bd a3 b7 10 3d 8f a4 e7 bc
       0.026222674 -0.035908315 0.03533138 -0.02827671
000270 bc 88 0e bc 66 6e 02 bd 6e f5 13 3d bd 6b be bc
       -0.008699592 -0.031843565 0.036122732 -0.023244733
000280 9b 13 f0 3c 20 8b 90 3c c5 36 17 3d 3b 80 48 bc
       0.029306224 0.017644465 0.036917467 -0.012237604
000290 69 1b 2c bd 79 6a 15 bc 81 4a dd 3b af 3e c6 bc
       -0.042018328 -0.009119623 0.0067532663 -0.024199812
0002a0 be ff 21 3d bd da 1b bd 22 39 a2 3c 2c 62 83 3b
       0.039550535 -0.038050402 0.019802634 0.0040095057
0002b0 df d0 74 3c c0 04 23 bd dd a8 d6 3c c7 c7 a2 3c
       0.014942377 -0.03979945 0.026203567 0.019870652
0002c0 bb 9c 36 bd 9f cd 05 bd de b4 d4 3c 9f b6 5e 3c
       -0.044583064 -0.0326668 0.02596515 0.013593345
0002d0 56 54 33 bd 28 51 f7 bc 88 2a 58 3b cc 3f 81 bc
       -0.0437816 -0.030190066 0.0032984335 -0.015777491
0002e0 33 3d 8d 3c ab 08 09 3d 70 2f 12 bb cc d9 11 bd
       0.017241096 0.033455532 -0.0022306107 -0.035608098
0002f0 18 fc 26 bd e8 83 19 3d 33 7c fb bc 7a e6 2c bc
       -0.04076776 0.03747931 -0.030698871 -0.010552997
000300 ca 4a d1 3b fd b9 d8 3b a4 93 02 bd 04 64 1f bd
       0.0063870894 0.0066139684 -0.031879082 -0.03891374
000310 34 0e 24 bd b0 54 30 3d 29 f0 63 3c 35 6f 30 3d
       -0.040052608 0.043049514 0.013912239 0.043074805
000320 1d 1d 10 3d e2 97 3d bb 62 8c b7 3c 29 31 74 3c
       0.035184015 -0.002892964 0.022405807 0.014904299
000330 23 2a 1c 3d 6c ad 35 bd b1 0c 78 3c a9 89 0d 3d
       0.038126122 -0.04435484 0.015139745 0.03455511
000340 27 21 34 bd 28 4d a0 bc c1 98 15 3d 0e e6 27 3d
       -0.04397693 -0.019568041 0.03652263 0.04099088
000350 2d cd 0b bd 0c 18 16 bd 47 4a 67 3c 51 cc 0d ba
       -0.034131218 -0.036644027 0.01411683 -0.00054091687
000360 2c c9 eb bc 13 c9 ff bb 5d 5b b0 3b 5e fe 33 3d
       -0.02878245 -0.0078059523 0.005381985 0.043943755
000370 d7 87 da bc af 2c 31 3d ef 90 00 bd 9b f9 cf bc
       -0.026676102 0.043255504 -0.03138822 -0.025387576
000380 b3 e1 4d bc db 71 6d bc 97 ed ba bb 75 5a 42 bc
       -0.012566018 -0.014492477 -0.0057045924 -0.011862387
000390 61 a9 1b 3d 52 8c d1 bc 07 6c e1 bb 19 89 14 3c
       0.03800333 -0.025579605 -0.006879333 0.00906589
0003a0 42 e6 8c 3b c0 b6 25 bd e2 00 91 3c 7b 4a ae 3c
       0.00429991 -0.040457487 0.017700616 0.02127575
0003b0 77 87 ee bc 80 7b 15 3d 3a 7b 05 3d 08 74 1c 3d
       -0.029117329 0.036494732 0.03258822 0.038196594
0003c0 ab 95 f3 3a 16 28 ad bb ab 95 73 3b 0e e1 99 3c
       0.0018584033 -0.0052843196 0.0037168066 0.018784072
0003d0 ba 0f 30 bd 8a 65 e8 3c 4e 20 ee bb 65 2c 00 3d
       -0.042983748 0.02836873 -0.0072670346 0.031292338
0003e0 0f e8 1f bd db c5 0e bc 33 f6 7b 3c b2 22 be bb
       -0.039039668 -0.008714165 0.015378523 -0.005802476
0003f0 d7 43 f0 bc 3f 1c a2 b9 95 22 0a 3b 37 32 00 bd
       -0.029329224 -0.00030920093 0.0021077741 -0.03129789

weight f4 [16, 16]
000000 58 15 43 3e cb 17 2e 3d b6 a0 7b be 1c ac ee be
       0.1905111 0.04250316 -0.24573025 -0.46615684
000010 d2 88 3c 3e f6 1b 34 bf cf 5b 7e 3e c2 e8 26 3f
       0.18411568 -0.70355165 0.2483971 0.6519891
000020 d6 49 1e 3f 17 8f a8 3b bd 2c 59 bd ad e3 29 3f
       0.61831415 0.0051440108 -0.05302118 0.6636303
000030 13 13 f2 3e 2a b8 0e 3f fd 5f 29 be 45 1d be be
       0.47280177 0.5574976 -0.16540523 -0.37131706
000040 30 37 d1 bc 4f b4 80 3e 68 a0 b8 3e f8 b2 82 be
       -0.02553901 0.25137565 0.3605988 -0.25527167
000050 27 a8 56 3e 48 52 cb 3c 4c 5a 86 3e 0a 63 dc 3d
       0.20962583 0.024819508 0.26240766 0.10761078
000060 9b 03 56 3e f2 5a 61 bf f7 8f a1 3e a1 47 41 3f
       0.20899813 -0.88029397 0.3155515 0.7549992
000070 77 02 66 be 7e 88 7a 3c 78 0a d4 be d2 6d b9 3c
       -0.22461878 0.015291331 -0.41414237 0.022635374
000080 0d 07 2d be 4d 34 23 3d 8e 71 4b bf 21 a2 19 bf
       -0.16897221 0.0398448 -0.79470146 -0.60013014
000090 4b 27 87 be 56 fd 83 bf b5 54 1f 3e 52 5e a2 3d
       -0.26397166 -1.0311687 0.15559657 0.079281464
0000a0 d0 92 1c 3d 34 43 04 bd 56 8b 05 be 30 1c 9d 3e
       0.03822595 -0.032290652 -0.13041434 0.30685568
0000b0 aa 41 84 3f a8 f9 68 3e 6d e4 af be 31 79 8e 3d
       1.0332539 0.22751486 -0.34353963 0.06956709
0000c0 d0 48 be bd a6 6e 15 bd 75 4e 13 bf 32 c2 07 bf
       -0.09291232 -0.036482476 -0.5754159 -0.53030694
0000d0 ca 3d 22 be 87 d3 4b bf 49 69 61 3d 8e 59 d6 3d
       -0.15843883 -0.7961964 0.05503205 0.104663
0000e0 02 be 30 bc fe 4d 39 bd e5 96 d6 bd b7 65 6a 3e
       -0.010787489 -0.045240395 -0.104779996 0.22890364
0000f0 4d 42 8f 3f 49 98 f0 bd 73 d8 e1 be a0 2b b3 3d
       1.1192108 -0.11747796 -0.4411045 0.08748555
000100 0c 5d 9f 3d fa 3a bf 3d 9f fb 41 3e 2b 36 2a be
       0.07781419 0.09337421 0.18943642 -0.16622226
000110 70 53 04 3e b6 1a 81 3d 9b be 38 3e 10 23 2e 3e
       0.12922454 0.06303923 0.1804146 0.17005563
000120 ff b5 43 3e 20 f8 56 bf 93 2e ae 3d e4 d2 1f 3f
       0.19112395 -0.8397236 0.08504977 0.6243117
000130 8c 37 30 be f1 f1 67 3d 9d bb a2 be c0 ef b0 bd
       -0.1720869 0.056627218 -0.31783763 -0.08639479
000140 88 9b 1d 3d d5 00 9a bd 7b 2d 01 3f fb 9c 15 3d
       0.038478404 -0.0751969 0.5046002 0.03652666
000150 a8 87 e1 3d e4 79 8c be 44 4c 65 bf cb 1a 4e be
       0.110122025 -0.27436745 -0.895695 -0.20127408
000160 2b 59 71 3d 1d 4a f6 bd 68 49 90 3e a1 f5 50 bf
       0.058922928 -0.12025855 0.28181005 -0.816248
000170 30 f1 c0 be bd bc 6e 3e 33 3b 9a bd 2b b6 fa 3e
       -0.3768401 0.23314185 -0.075308226 0.48967108
000180 0c fc 34 3e 1c 54 69 3d 09 22 8a be 8a c6 1d bf
       0.17674273 0.05696498 -0.26979092 -0.6163107
000190 96 d8 8a 3e 3f 1d 12 bf d5 5c 56 3e b1 00 03 3f
       0.27118367 -0.57075876 0.2093385 0.5117293
0001a0 d6 1c 23 3f 1b fc dd bd ea 1f a2 3d 63 f3 31 3f
       0.63715875 -0.10839101 0.079162434 0.69512004
0001b0 76 9e da 3e 6c a7 9e 3e 1f 21 47 be f1 03 9d be
       0.4269902 0.30987108 -0.19446228 -0.3066707
0001c0 5e a5 c9 bc 46 1b 85 3e 77 ed ac 3e 24 12 d2 be
       -0.024614986 0.2599737 0.3377492 -0.41029465
0001d0 49 ac f0 3d bd fe 65 bd 49 5f b3 3e e7 6c d3 3d
       0.11751611 -0.05615114 0.35033634 0.10323506
0001e0 73 05 55 3d 26 e9 32 bf d4 44 f2 3e 6b 29 2a 3f
       0.05200715 -0.69887006 0.47318137 0.6646945
0001f0 f4 39 93 be 8f 6c c1 bd 9c 30 1b bf 3a ba 3f bd
       -0.28755152 -0.09444534 -0.6062105 -0.04680846
000200 77 e6 2b 3c 0a af 8f 3e 38 0f 23 3e 11 5d 78 bd
       0.010491959 0.28063232 0.15923774 -0.06063563
000210 d3 c7 a8 3e 8c 2c 3e bc fe 02 25 bf d9 c7 df 3e
       0.32964954 -0.0116073005 -0.6445769 0.4370716
000220 03 5c 5e 3e 84 a5 b2 be 85 40 e3 be 82 47 24 bf
       0.21714787 -0.34891903 -0.44385162 -0.6417161
000230 22 62 74 bd 4e 91 81 3d 57 05 86 3f 67 5e 81 bd
       -0.0596639 0.06326543 1.047038 -0.06316834
000240 56 02 5e 3e cb e6 00 be 79 d5 b4 be b5 6e c6 be
       0.21680579 -0.1258804 -0.35319117 -0.38756338
000250 53 39 10 3d 9b ba 32 bf 92 20 36 3e c8 40 21 3f
       0.03521092 -0.6981599 0.17785862 0.62989473
000260 04 c4 25 3f 65 71 92 bd 90 d4 4e be 3b 74 29 3f
       0.6475222 -0.071505345 -0.20198274 0.6619298
000270 6e f1 53 3f 45 92 36 3f 8f f2 2d be 5b dc 9f be
       0.8279027 0.7131694 -0.1698706 -0.31222805
000280 0c 74 a9 3d e2 34 82 3e 8c 35 43 3e dc 11 13 be
       0.08274087 0.2543097 0.19063395 -0.14362282
000290 3f 12 dc 3e 0a 28 cd bd 30 6d 41 bf 5d 36 b3 3e
       0.4298267 -0.100174025 -0.7555723 0.35002413
0002a0 40 aa 84 3e 46 1c 9e be b8 45 10 bf 1a 2f 15 bf
       0.2591114 -0.30880946 -0.5635638 -0.58274996
0002b0 7e 4d 84 be 2d 7a 7b 3d 4c f2 80 3f 58 58 94 3c
       -0.25840372 0.061395813 1.0073943 0.018108532
0002c0 e0 c1 09 be 26 a9 9f 3d 83 bb 4c bf de 4a 1f bf
       -0.13452864 0.077959344 -0.7997362 -0.62223613
0002d0 75 88 37 be 87 17 35 bf 2b 61 d9 bb 9e 69 c5 3c
       -0.17923148 -0.70739025 -0.006633898 0.024098214
0002e0 fe 45 03 3e 16 b9 c4 bd 5b 10 f5 bd 8a ef e6 3d
       0.12819669 -0.09605615 -0.1196601 0.11276157
0002f0 a5 a8 6c 3f b1 e4 de 3d 29 ba d6 be 53 1b 4e 3d
       0.9244483 0.10883463 -0.41938904 0.050319027
000300 69 d7 98 3c 5e c8 71 3e ea a2 88 3e cb 96 28 be
       0.018657403 0.2361159 0.26686794 -0.16463773
000310 cc 07 2e 3e 26 2e 09 3d 52 73 9d 3e 1e cf 7a 3d
       0.16995162 0.033491276 0.30752045 0.06123268
000320 47 67 81 3c 89 02 5d bf 3a 3f 1a 3e 36 35 18 3f
       0.015796317 -0.86331993 0.15063182 0.59456193
000330 fa cd 67 be 18 e9 16 bd 16 96 8f be 9e 7d bb ba
       -0.22637168 -0.03684339 -0.28044194 -0.0014304405
000340 db c4 8e 3c 59 ae 01 3d aa 9a f3 3e 58 09 86 3d
       0.017427852 0.03166041 0.47578937 0.06544751
000350 6d 16 39 3e 35 64 90 be 10 dd 58 bf 9f 80 32 be
       0.18074961 -0.28201452 -0.84712315 -0.17431878
000360 77 ff 57 3e b2 27 f2 bd 3c 8d 94 3e f4 9c 4e bf
       0.21093546 -0.118239775 0.29014003 -0.8070824
000370 11 cf 96 be 75 45 68 3e 61 5b 70 bd de 64 b6 3e
       -0.29454854 0.22682746 -0.058680896 0.3562383
000380 7c 60 17 3d 54 8f 53 3d 71 e8 36 3e 6c ef 1a be
       0.03695725 0.05165036 0.17862107 -0.15130395
000390 1e fb ba 3d d8 d0 9b bd 10 98 48 3e 03 aa 5e 3e
       0.09129928 -0.07608193 0.19589257 0.21744542
0003a0 cf 76 8a 3e c2 30 2d bf d2 44 85 3d 0b 0b e6 3e
       0.2704377 -0.67652524 0.06507267 0.449303
0003b0 08 7a 32 be c0 35 79 bc 83 b2 83 be 69 84 66 be
       -0.17429364 -0.015210569 -0.2572213 -0.22511448
0003c0 05 1e da bc 78 86 79 3e af cf eb 3d c3 50 da be
       -0.026625643 0.24367702 0.11514222 -0.4263974
0003d0 f8 c7 11 3d 7d e3 d3 3d 7c 06 46 3e 81 d7 92 3e
       0.035591096 0.10346124 0.19338411 0.2868004
0003e0 78 9b 14 3e 73 df 4b bf a1 54 5b 3e f8 2a 62 3e
       0.14512432 -0.7963783 0.21419002 0.22086704
0003f0 92 b4 0e be 76 89 d0 bc f1 1d 50 be 2b cd 7a be
       -0.1393607 -0.025456171 -0.20323922 -0.24492328

bias f4 [16]
000000 00 70 d0 bc c2 06 93 3e d4 ff 9d bd e1 c7 26 3d
       -0.02544403 0.28716093 -0.07714811 0.040717963
000010 fd 94 c1 3e 0b 28 63 3d 74 33 21 bd 51 8a 24 3e
       0.37808982 0.05545811 -0.03935571 0.16068389
000020 0c 10 09 3e 9a 41 03 be cf 47 e4 3d 23 fe ef 3d
       0.13385028 -0.12817994 0.11146509 0.117183946
000030 2d 76 98 3e 85 a1 9f 3d 7e d0 e7 3e 6d 10 f2 3e
       0.2977766 0.07794479 0.45276254 0.47278157

weight f4 [3, 16]
000000 0f 3d 26 be cf 72 39 3e f7 bf bf be 40 b1 d3 be
       -0.1623423 0.18110202 -0.37451145 -0.4134617
000010 dc 5d 46 3d 9f 7d 11 3e 65 47 a3 bd 36 2d 95 3d
       0.048429355 0.14208077 -0.07972602 0.07284014
000020 24 5f ca 3e af ed f8 bc a6 ca a6 3e 21 da 97 be
       0.39525712 -0.030386774 0.32576483 -0.29658607
000030 39 ca df 3d 19 c9 52 3e 99 df 3d 3e bd f0 f0 3d
       0.10927243 0.20584525 0.18542327 0.11764667
000040 59 32 94 bf 41 b8 db bf de c8 aa 3d 31 c6 6d bd
       -1.1577865 -1.7165605 0.083390936 -0.05805034
000050 4e ec a0 bf 3b 87 47 3e 8c 09 e1 bf 1e 2d 1f c0
       -1.2572114 0.1948518 -1.7581038 -2.4871287
000060 16 9e fa bc 2e dd a2 bf 2d 6d 4d bd 23 18 d4 3d
       -0.03059296 -1.2723749 -0.050152946 0.10356166
000070 f6 79 d3 bf e7 82 8d 3e 6b 25 84 bf 10 22 8f bf
       -1.6521595 0.27638933 -1.0323919 -1.118227
000080 54 34 a6 3e 34 d9 73 3e 47 50 91 3e 71 b2 51 3e
       0.32461798 0.23813325 0.2838156 0.20478226
000090 fd f0 cc 3d 80 11 40 bf 2f 07 7d 3e 3e 97 1d 3e
       0.10006902 -0.750267 0.24709772 0.15389726
0000a0 1c 45 90 be 1e a8 c4 3e ce a5 cb be 06 2c 97 3e
       -0.28177726 0.38409513 -0.39774936 0.29525775
0000b0 82 77 20 3e 34 dc 22 bf 4c 3e 80 3e ed 40 40 3e
       0.15670589 -0.63617253 0.2504753 0.18774767

bias f4 [3]
000000 2d fb f8 3e c6 ca 27 3f 11 a9 6f bf
       0.48629132 0.6554378 -0.9361735
