results/IMDB-MULTI_GCN.pth (torch, 25444 bytes, 13 tensors)

weight f4 [89, 16]
000000 50 f3 66 3e aa 81 0b be 83 a0 01 be c9 ca 75 3e
       0.22553754 -0.13623682 -0.12658887 0.24003138
000010 14 b7 93 bb 5b 2d 80 be 54 62 fb 3d c1 df 92 3e
       -0.0045079086 -0.25034603 0.12274614 0.28686336
000020 c2 f4 f8 3d cb ac bc 3e 2d 72 d8 3d 86 e1 d9 be
       0.12156059 0.3685058 0.10568652 -0.42554873
000030 f4 e2 e4 3d b4 90 12 3e ae 47 e5 3d 0e 94 96 3e
       0.111761004 0.14313012 0.111953124 0.29409832
000040 8d d3 0d 3e 49 c4 40 3e 2b 67 88 ba 6d d6 b5 bd
       0.13850231 0.18824877 -0.0010406723 -0.08878789
000050 13 92 81 3e b4 6f c7 bd 4d 3d c6 bd a9 e8 e6 3d
       0.25306758 -0.097381026 -0.09679661 0.11274845
000060 cc c4 b6 bc bc 78 9f 3e d2 13 09 3e 43 c9 c5 bc
       -0.022310637 0.311468 0.13386467 -0.02414382
000070 96 f6 2b 3e 2f ce ea 3d 68 a2 2f 3e e7 6f bf bd
       0.16793284 0.11465108 0.17151797 -0.093475156
000080 ad 1c 2b 3e 27 72 36 3e f2 1b 36 be ef da 15 bd
       0.16710158 0.17816983 -0.17784098 -0.036585744
000090 bd 39 9e bd 8c 1d e0 3e 56 77 9e bc 82 9e b3 bc
       -0.077258565 0.43772542 -0.019344013 -0.021926168
0000a0 b7 ed f6 3d 8a a9 f6 3e fe 01 de bd 4e 3e a8 be
       0.12057059 0.48176223 -0.10840224 -0.32860035
0000b0 95 f4 4b 3f 0e 7d 10 3e e0 fa 91 3e fb 55 7c be
       0.7967008 0.14110205 0.28511715 -0.24642174
0000c0 ee 39 86 3e be 94 94 3f 43 0f 0c bf 91 fb d7 bd
       0.26216072 1.1607893 -0.5471079 -0.10546029
0000d0 cf 07 4c be 2e 52 79 3e 93 7c b7 be 94 ab 1c 3f
       -0.19924854 0.24347755 -0.3583723 0.6119931
0000e0 bc 06 10 3f 5a e3 56 be d3 48 be bd 64 d6 8c 3f
       0.56260276 -0.20985165 -0.09291234 1.1002927
0000f0 96 19 70 bd a2 a6 d4 be 85 14 1e be 9e f1 99 3e
       -0.05861815 -0.4153338 -0.15437515 0.30067152
000100 de 10 f3 3e 30 cb be 3b 51 02 07 bf 1d 6b 03 bd
       0.47473806 0.0058225617 -0.5273791 -0.032084573
000110 de c9 3b be ff d4 04 bf 37 11 5e bd f4 01 98 bf
       -0.18338725 -0.51887506 -0.054215636 -1.1875596
000120 35 de 0c 3f 97 27 12 bf 09 f9 51 be f9 fb 0b bf
       0.5502656 -0.5709166 -0.20505156 -0.54681355
000130 48 cc 87 3f 41 58 91 be 58 9b 08 3f 3e 96 14 be
       1.0609217 -0.28387645 0.53362036 -0.14510438
000140 aa cd b0 3c 60 05 30 bf c9 e8 16 bf 12 87 38 be
       0.021582443 -0.687582 -0.5894895 -0.18020275
000150 28 1f d1 bc 86 26 cf be b3 72 10 3f 0f cf af be
       -0.025527552 -0.4045908 0.5642502 -0.3433766
000160 a1 9d 2c 3f e6 59 da be 38 73 81 bf 6e dc 99 be
       0.6742802 -0.42646712 -1.0113287 -0.30050987
000170 07 04 10 3d 7a 81 d0 3e 70 2a 0e 3f 51 a1 89 be
       0.03516009 0.40723783 0.55533504 -0.26880887
000180 aa b1 40 bd ee 1f 48 be 84 2c ca be bf 17 50 bd
       -0.047044434 -0.1954343 -0.39487088 -0.050803896
000190 0a c7 90 be 15 60 61 3e 96 41 cf 3e b2 88 c6 be
       -0.28276855 0.22009309 0.40479726 -0.38776165
0001a0 54 ff b6 bf 47 b1 b9 be 50 55 88 bf 31 3e 63 3e
       -1.429667 -0.36268064 -1.0651035 0.22191693
0001b0 9f 05 3f bf 44 71 1a bf 55 0a 09 3f 63 8c ef bd
       -0.7461795 -0.6032908 0.5353139 -0.116966985
0001c0 68 55 4c bd d3 ff dc be 1e 77 a7 3e 12 15 c9 be
       -0.049886137 -0.43163928 0.32708067 -0.39273888
0001d0 53 c8 92 be 38 6d 56 bd 6e 82 7f be 00 f0 f7 3e
       -0.2866846 -0.052350253 -0.24952099 0.48425293
0001e0 04 66 a1 3e 59 80 a5 be fb 03 04 bd 36 7f b5 3e
       0.31523144 -0.32324484 -0.03223036 0.35448617
0001f0 37 b5 bf bd c3 2d d4 be 05 4c f4 be cc 5f b7 be
       -0.09360736 -0.41441163 -0.47714248 -0.35815275
000200 7e 44 ce be 7b e7 a4 be 23 95 45 3e 26 dc 73 be
       -0.4028663 -0.32207856 0.19295172 -0.23814449
000210 28 33 a6 be 04 04 2b 3e e7 bb 4a be 5f cb 40 3f
       -0.32460904 0.1670075 -0.19798242 0.7531032
000220 5d a7 16 bf 83 23 2c be 0d 2b 60 bb a4 91 0d 3f
       -0.58849126 -0.16810422 -0.0034205348 0.55300355
000230 1e 96 a8 3e 6e 7e 23 be 15 7a aa be a7 3e a8 bd
       0.3292703 -0.15966198 -0.33296266 -0.08215075
000240 47 6b a6 3d f1 63 c9 bc 2d 22 c8 3e 5d a3 c3 bc
       0.0812593 -0.024583789 0.39088574 -0.023881609
000250 f1 06 b6 3d 07 34 05 bf 33 87 95 3d 50 ee ba 3e
       0.08888043 -0.5203251 0.07301178 0.36509943
000260 3a da 3b 3e f3 8b 83 be e0 96 02 be a4 f9 0f 3f
       0.18344966 -0.2569271 -0.12752867 0.56240296
000270 62 04 f4 3e 5b b5 90 be 7b 8f 65 3e 18 23 34 3f
       0.47659594 -0.28263363 0.22418015 0.7036605
000280 bc bf 62 3b 57 e0 13 bf ac 30 e1 3e 4b ab 2d be
       0.0034599146 -0.5776419 0.43982446 -0.16959874
000290 65 28 b0 be d6 b1 9a bd ee c8 00 be f9 36 16 3f
       -0.3440582 -0.07553451 -0.12576649 0.5867763
0002a0 e1 ee c9 be 97 54 f2 3e aa 28 4f 3f aa a3 7b be
       -0.39440063 0.47330162 0.80921423 -0.24574152
0002b0 c2 13 c8 bd 45 03 7a be f3 97 0e be b7 c5 80 be
       -0.097693935 -0.2441531 -0.13925152 -0.25150844
0002c0 98 ab 14 be 73 09 32 be 3c b8 b0 3e d1 99 7a be
       -0.14518583 -0.17386417 0.3451556 -0.24472739
0002d0 99 8e 17 be 8a 03 e5 3d 9e 5c e5 3c ab 6c 95 be
       -0.1480049 0.11182316 0.027998265 -0.2918447
0002e0 6c 89 5e be e7 16 e1 3e 78 98 32 be 8c 8f 13 3e
       -0.2173211 0.43962786 -0.17440975 0.14410228
0002f0 66 d3 e4 3d ed 97 14 be 34 19 ae be 7e 45 07 3f
       0.111731336 -0.1451108 -0.34003603 0.5284041
000300 99 1c d0 be 26 79 38 be a0 33 5b 3f 7e 5d 0d be
       -0.40646818 -0.18014964 0.8562565 -0.13805196
000310 a1 a4 2e bd 8a b6 46 3f 92 b3 86 be 63 58 8d 3f
       -0.04263747 0.7762228 -0.26308876 1.1042598
000320 89 20 7d bf e5 c0 9f 3f f6 24 0e 3f 56 7f 3f 3f
       -0.9887777 1.2480742 0.5552515 0.74803674
000330 20 4d 5b bf be 60 a0 be 55 dc 46 bf fa 40 70 3f
       -0.8566456 -0.31323808 -0.7767995 0.93849146
000340 c7 7c d2 3d 59 c8 ca bd 99 bc eb 3e b8 81 3c be
       0.10277706 -0.099014945 0.46042326 -0.18408859
000350 db bd ef bd 5f ff 27 3f f6 72 a0 3d 12 aa af 3e
       -0.11706134 0.6562404 0.07834427 0.3430944
000360 61 dc 3e 3e 0f 93 14 3f 00 05 8f be 84 21 aa be
       0.18638755 0.58036894 -0.27933502 -0.33228695
000370 2c ea 90 3e ee ec aa bc 73 a7 26 be 02 55 21 3f
       0.2830366 -0.02086493 -0.16274814 0.63020337
000380 07 7d 1a 3d 92 8c a3 be c6 51 21 be 4f b7 8b be
       0.03771689 -0.31943184 -0.1575385 -0.2728829
000390 32 1b c7 be af 9f e0 bd da 98 40 3e dc 2b fe bd
       -0.38887936 -0.10967957 0.18808308 -0.12410709
0003a0 69 91 6a 3f 52 6e a4 3c be 85 95 3e 09 82 6b be
       0.9162813 0.020072136 0.292036 -0.22998823
0003b0 ea 92 44 be 2b 5e 6f be 7f af 41 3f 70 4d 42 be
       -0.19196668 -0.23375766 0.7565841 -0.18974853
0003c0 b0 67 c0 bd fe 8e 7a be f8 35 81 3d 5f 02 45 bd
       -0.09394777 -0.2446861 0.06309122 -0.048097964
0003d0 97 a0 12 be 46 6d d5 3d 03 cc 0a 3c 78 bd 8d 3d
       -0.14319073 0.10421233 0.008471492 0.06920904
0003e0 fa 00 1d 3d 71 74 c6 3e 12 ca 3c be 41 04 8c 3e
       0.03833101 0.38760713 -0.18436459 0.27346995
0003f0 2a 16 2d be e6 a2 c2 bd ed 93 b5 3d 3b de c6 3e
       -0.16902986 -0.09503727 0.08866105 0.38841423

bias f4 [16]
000000 d4 71 a7 bd ac 98 0c be 73 6b 5e 3e ff 8f 8f be
       -0.08176008 -0.13730115 0.21720676 -0.28039548
000010 42 9f 40 be 1b 5d 2e be 1e 45 d4 bc 65 f5 90 3e
       -0.18810752 -0.17027704 -0.025911864 0.2831222
000020 b6 21 84 3d 38 f2 db 3d 0f 98 b9 bb aa 0e 97 3d
       0.06451742 0.10739559 -0.0056638788 0.07375844
000030 5d 21 7f 3c 2e f7 b3 bd 3c 5b 88 3e 80 9b 04 3d
       0.015571919 -0.0878738 0.26632106 0.03237486

weight f4 [16, 32]
000000 3b 95 c2 be 48 6d 09 bd 0e c6 0c 3e ab 13 6a bd
       -0.3800448 -0.033551484 0.13747427 -0.057147663
000010 8b e0 a6 bd 77 9a 2d be 60 e2 3c 3e 81 a9 30 bd
       -0.08148297 -0.16953455 0.1844573 -0.0431304
000020 df f8 ff bd ea 21 22 3e 61 14 67 3e 92 40 c2 3e
       -0.1249864 0.1583325 0.22566368 0.37939888
000030 da 43 06 be 4b 35 8e 3e 36 b0 0b 3e 5c 14 43 3d
       -0.13111821 0.27775034 0.13641438 0.047626838
000040 4e 68 16 3e 6f 20 14 3e 7f 63 14 3e 22 b2 15 3e
       0.14688227 0.14465497 0.1449108 0.14618734
000050 80 7e 16 3e 94 6f 14 3e f2 53 16 3e db c5 15 3e
       0.14696693 0.14495689 0.1468046 0.14626257
000060 33 08 16 3e 0e 3c 16 3e 25 4e 14 3e a4 47 14 3e
       0.14651565 0.14671347 0.14482935 0.14480454
000070 b5 56 14 3e fd 10 16 3e be f1 14 3e 34 83 16 3e
       0.14486201 0.14654918 0.14545342 0.14698488
000080 00 d3 19 be 07 f3 a0 be ed 0d d3 3d 26 ec d2 3c
       -0.15021896 -0.31435415 0.103053905 0.02574737
000090 1b 55 04 be 74 87 02 bf a0 d7 66 3e 67 70 8c be
       -0.1292309 -0.50987935 0.22543192 -0.27429506
0000a0 86 f8 0d bf 91 c9 28 bf a3 20 80 be ab 19 b8 bd
       -0.5545734 -0.65932566 -0.250249 -0.08989271
0000b0 82 8b 9d 3d 0d fd 1a 3e 47 f9 25 3f d3 ad d8 3e
       0.07692625 0.15135594 0.6483349 0.42320117
0000c0 67 2f 29 3e 5d 93 28 3e 8a d6 28 3e b3 7d 29 3e
       0.16521989 0.16462465 0.1648809 0.16551857
0000d0 46 c9 2a 3e 9e a2 2c 3e 4c 72 29 3e fd 10 2b 3e
       0.16678342 0.16858909 0.16547507 0.167057
0000e0 fb 3c 27 3e 24 a9 2b 3e c6 7c 28 3e 86 61 28 3e
       0.16331856 0.16763741 0.16453847 0.16443452
0000f0 e5 97 27 3e bb 27 28 3e 99 81 26 3e 3f db 2a 3e
       0.16366537 0.16421406 0.16260375 0.16685198
000100 b5 de 83 bc 74 82 6e 3e ea ea c9 bd 7c 89 a2 be
       -0.016097406 0.23291951 -0.098592594 -0.31745517
000110 88 d9 0a be 2a 25 df bc a0 f2 f3 bc 18 34 a5 3e
       -0.13559544 -0.0272394 -0.029778779 0.32266307
000120 67 e4 87 3d d1 ff bc 3d f5 25 d5 3e ed 66 44 3e
       0.06635361 0.092284806 0.4163052 0.19179888
000130 e6 cc d2 3e 5a b4 9c bd 91 b5 c7 be 4b 7b 8f bd
       0.4117195 -0.07651587 -0.39005712 -0.07005938
000140 65 26 5c 3f 31 83 5d 3f 13 d4 5c 3f c5 5d 5e 3f
       0.85996085 0.8652831 0.862611 0.8686183
000150 a3 1e 5f 3f 4a 2e 5f 3f 66 62 5c 3f b4 d0 61 3f
       0.8715612 0.87180007 0.86087644 0.8820908
000160 e5 6b 5d 3f 1a 70 5a 3f ef 5d 5e 3f c5 a2 5e 3f
       0.8649276 0.85327303 0.8686208 0.86967117
000170 21 8f 5e 3f f6 61 5f 3f 06 85 5e 3f ed 2c 5d 3f
       0.8693715 0.8725885 0.8692173 0.86396676
000180 7f 4d 28 bd 38 c2 20 bd 75 0d e8 be 38 a3 b4 bd
       -0.04108953 -0.03924772 -0.45322767 -0.08820194
000190 7b a6 b5 3e 5b 77 30 be 4e 8e 49 3e de 8d cf bd
       0.35478577 -0.1723303 0.19683191 -0.10134481
0001a0 b5 79 00 be 6c 17 ee 3e 7a 18 3f 3d 4b 2c 9b bd
       -0.12546428 0.46502244 0.046654202 -0.075768076
0001b0 30 00 5b bd d5 f2 b0 3e fc 35 c3 3d b5 19 e8 be
       -0.053466976 0.34560266 0.09531781 -0.45332113
0001c0 eb 3a b2 3d ec e1 af 3d 3e a3 ae 3d ab 8f ad 3d
       0.08702644 0.08588013 0.0852723 0.08474668
0001d0 72 f0 ad 3d 44 8c af 3d c7 5b b1 3d ca c8 b1 3d
       0.08493127 0.085716754 0.08660083 0.086808756
0001e0 1e 1a b5 3d 72 48 ac 3d 01 6a b0 3d a7 8a af 3d
       0.08842872 0.08412255 0.08613969 0.08571368
0001f0 ab f0 ad 3d ab b5 af 3d 56 d6 ae 3d cd 3b b0 3d
       0.084931694 0.08579572 0.08536975 0.08605156
000200 7c 18 27 3f fd e4 a0 bd 1a c6 c6 be 70 3a 30 bf
       0.65271735 -0.07856176 -0.38823014 -0.6883917
000210 dd de 87 3e d6 33 24 bd fa 96 db 3e 22 31 9e be
       0.2653722 -0.040088497 0.42888623 -0.3089686
000220 83 d7 c2 be 85 2f 30 3f 55 36 0d bf 7a 8b bb be
       -0.38055047 0.6882251 -0.5516103 -0.3662985
000230 c0 6b 2e 3e 2e 68 14 3e 72 05 4c 3d 71 34 4d be
       0.17033291 0.14492866 0.04980988 -0.20039536
000240 1f e1 30 3e 14 1c 2f 3e ed d7 2e 3e c1 86 2e 3e
       0.17273377 0.17100555 0.17074557 0.17043592
000250 bb 85 2e 3e bc c2 2f 3e 4c ec 2f 3e 41 65 33 3e
       0.17043202 0.17164129 0.17179984 0.17519094
000260 6c 13 33 3e 03 93 2c 3e 74 e8 2e 3e b6 22 2f 3e
       0.17487878 0.16852956 0.17080861 0.17103085
000270 99 05 2f 3e ea 32 30 3e d3 2c 2c 3e de 89 2d 3e
       0.17091979 0.17206922 0.16813974 0.16947123
000280 4d e4 bf bd 90 77 a6 be 1f ea 32 3e 34 26 63 3d
       -0.09369717 -0.32513094 0.17472123 0.055456355
000290 01 44 db be d7 e3 6a be 5f a9 0a be d3 90 4f 3e
       -0.4282532 -0.22938477 -0.13541172 0.2027009
0002a0 69 37 c4 be 52 9b 0a bf c2 c3 13 be 8c 3d 3a 3e
       -0.38323525 -0.5414325 -0.14430144 0.18187541
0002b0 e8 c6 04 3e 91 97 2e be f9 6f f2 3d ac 1d 06 3f
       0.12966502 -0.17050005 0.11837763 0.52389026
0002c0 3d d1 c0 3e 9f ab be 3e ac 8b bd 3e c1 ef bf 3e
       0.37659636 0.37240312 0.37020624 0.37487605
0002d0 e3 7c bf 3e 10 df c0 3e f6 64 bc 3e 94 cf c5 3e
       0.37399969 0.37670183 0.36795777 0.38634932
0002e0 79 f8 bd 3e ed 01 bc 3e 52 94 bf 3e 90 ad bf 3e
       0.37103632 0.3672022 0.37417847 0.37437105
0002f0 46 c0 be 3e 78 3a bf 3e 01 a0 c0 3e 93 c2 be 3e
       0.37256068 0.37349296 0.37622073 0.37257823
000300 1b 3f 9f 3d 57 23 fa 3d 68 5d a5 3d 89 e5 44 3e
       0.07775708 0.12213772 0.080744565 0.19228186
000310 72 21 38 3e 73 90 ba bb c9 e4 4f 3e 54 df c9 bd
       0.17981508 -0.005693489 0.20302118 -0.098570496
000320 fb 96 48 3e 60 2c 99 bd 6e b2 0a be b7 91 f0 3d
       0.19588844 -0.07479167 -0.13544628 0.11746543
000330 02 ba 67 be 37 e0 8f be 82 33 65 bd f3 88 49 3d
       -0.2262955 -0.2810075 -0.055957325 0.04920287
000340 31 97 f6 3e cf 07 f4 3e 41 5e f5 3e ec 75 f3 3e
       0.48162225 0.47662207 0.47923473 0.47550905
000350 9d f0 f6 3e 16 b8 f5 3e 0e d2 f5 3e 1c 72 f5 3e
       0.48230448 0.4799201 0.48011822 0.4793862
000360 6a 8f f5 3e fd 34 f4 3e c6 d8 f2 3e 79 95 f5 3e
       0.4796098 0.47696677 0.4743101 0.479656
000370 8c 28 f6 3e 1b 70 f5 3e ea a7 f6 3e 27 98 f4 3e
       0.4807781 0.47937092 0.48174983 0.47772333
000380 49 20 58 be dd 92 36 be d4 35 9a 3e fc bf d9 bd
       -0.21106066 -0.17829461 0.30119193 -0.10632321
000390 f8 fb 0e 3d e9 20 31 3c 3b f6 63 be 31 1a 86 3e
       0.034908265 0.010811069 -0.22261898 0.26191857
0003a0 a6 c6 92 3e 18 55 61 3c 20 35 24 be 33 76 e5 3e
       0.28667182 0.013753198 -0.1603589 0.4481674
0003b0 1c 0a e8 3d e2 db 9f 3d a4 e8 ce be d4 84 3a be
       0.11330053 0.07805611 -0.40411866 -0.18214732
0003c0 cf 42 95 3f 78 23 96 3f 99 9e 96 3f c2 7c 96 3f
       1.1661013 1.1729574 1.176715 1.1756823
0003d0 ac 35 97 3f ba 0c 97 3f 8c e4 95 3f 6e b3 98 3f
       1.1813254 1.1800759 1.1710372 1.1929758
0003e0 db a6 96 3f 80 11 95 3f 7a 97 96 3f 04 16 97 3f
       1.176967 1.1645966 1.1764977 1.1803594
0003f0 20 84 96 3f 2c dc 97 3f 9e 9e 96 3f 05 79 96 3f
       1.1759071 1.1864066 1.1767156 1.1755682

bias f4 [32]
000000 64 93 90 bc b7 a7 17 3d 66 e4 44 be 73 36 b8 3a
       -0.017648406 0.03702518 -0.19227752 0.0014054313
000010 35 07 3a 3e 39 bc 95 3e 14 93 36 ba 49 2a 32 bc
       0.18166812 0.29245165 -0.00069646654 -0.010874339
000020 d3 d3 87 3e ac 6d 1d 3e 8d af 96 3c f7 7c 9b 3d
       0.26528797 0.15373868 0.018394256 0.075921945
000030 c0 1a ee bd 88 ac f0 bd a8 6f 84 3d ed 35 89 be
       -0.11626196 -0.11751658 0.06466609 -0.26798955
000040 72 75 38 40 9c 84 38 40 ce 83 38 40 8b 6f 38 40
       2.8821683 2.8830938 2.8830447 2.881808
000050 00 97 38 40 b9 95 38 40 1e 95 38 40 d2 b9 38 40
       2.8842163 2.8841383 2.8841014 2.8863416
000060 be b3 38 40 3b 95 38 40 21 81 38 40 3b b2 38 40
       2.8859706 2.8841083 2.8828814 2.8858783
000070 e2 6f 38 40 8f bf 38 40 3f af 38 40 73 9e 38 40
       2.8818288 2.8866918 2.8856962 2.884671

feat_mask f4 [89]
000000 bc b0 af 3e 69 5c 16 3f db 46 b3 3f 13 91 07 40
       0.34314525 0.58734757 1.4005998 2.1182296
000010 f1 19 0d 40 d3 b8 e5 3f 70 5f d2 3f ca f1 c6 3f
       2.2047083 1.7947029 1.6435375 1.5542538
000020 9f 0e d0 3f 23 18 9b 3f 6d 36 d5 3f 15 3b b5 3f
       1.6254462 1.2116741 1.6657234 1.4158655
000030 55 f8 25 40 2c cb e7 3f 42 dc fe 3f e5 1d 67 3f
       2.593282 1.8108878 1.9910967 0.9027999
000040 0d 99 98 3f 7b a1 d9 3f 63 36 0d 40 fc 48 07 40
       1.1921707 1.7002405 2.2064445 2.1138296
000050 ff dc 57 3f d1 c6 05 40 47 b2 68 3f 34 3f f8 3e
       0.8432159 2.0902598 0.9089703 0.4848572
000060 95 99 42 3f 55 1d 03 3f 0a 67 54 3f 33 72 07 3f
       0.760156 0.5121663 0.82969725 0.5290863
000070 ff c1 a4 3e a7 6a 0c 40 98 1b 24 40 99 af 16 40
       0.32179257 2.1940095 2.5641842 2.3544676
000080 48 8c 46 3f 4c e0 23 3f a3 68 f8 3e 7b a0 49 3f
       0.775578 0.64014125 0.4851733 0.787605
000090 64 9c 3f 3f 4a 51 f7 3f 6f 62 02 3f 50 a1 47 3f
       0.7484801 1.9321682 0.5093145 0.7798052
0000a0 5b 13 22 3f ea 31 13 3f 80 02 19 3f 08 ff 81 3e
       0.63310784 0.5749804 0.5976944 0.25389886
0000b0 c0 96 1d 3f bd f5 f4 3e 00 ba f3 3e 76 3e 1b 3f
       0.6155815 0.47843733 0.47602844 0.6064218
0000c0 8d d2 00 3f 5b 95 14 3f f7 9b 66 3f ce b4 38 3f
       0.50321275 0.580404 0.90081733 0.72150886
0000d0 d7 db 0f 3f 53 02 15 3f 5f cb d8 3e 55 68 b6 3e
       0.56194824 0.5820667 0.4234266 0.35626474
0000e0 7c 94 11 3f 4c f1 42 3f 0d 30 d5 3e 8f d8 37 3f
       0.56867194 0.7614944 0.41638222 0.7181482
0000f0 fa 43 18 3f b8 85 f8 3e ee ec 12 3f 85 1f d1 3e
       0.59478724 0.4853952 0.57392776 0.4084436
000100 7f 57 a1 3e 91 6a 52 3f ed 18 ac 3e 06 29 94 3e
       0.31512067 0.8219386 0.33612767 0.28937548
000110 2d d4 e6 3e e0 1a 20 3f 4c 81 36 3f 52 45 2a 3f
       0.45083752 0.6254101 0.7129104 0.66512024
000120 95 03 29 3f 33 3a 1f 3f 59 8d 0f 3f 60 2a 33 3f
       0.6602109 0.6219818 0.56075054 0.69986534
000130 22 8e 19 3f 9e 46 0a 3f af 81 04 3f 5a 9d 11 3f
       0.599825 0.54014003 0.5176038 0.56880724
000140 9e 10 cf 3e 16 b1 ab 3e 64 be 95 3e 6d fb fe 3e
       0.40442365 0.33533543 0.2924682 0.49801198
000150 b0 aa c4 3e 49 77 35 3f e0 fa de 3e c7 94 44 3f
       0.38411474 0.7088514 0.43550777 0.76789516
000160 72 a2 15 3f
       0.58450997

weight f4 [16, 89]
000000 33 f6 cf bd d6 35 5e bd f6 cd 8d 3a ed a1 d8 3d
       -0.10154381 -0.05425056 0.0010818827 0.1057776
000010 d4 71 d9 bc d6 ce a0 bd ec 8e d8 bd b6 47 a0 bd
       -0.026543535 -0.07851951 -0.10574135 -0.07826178
000020 44 42 88 bd 65 78 10 bd 2f 3c 8c bd 6f 8f 9b bd
       -0.06653264 -0.035271067 -0.068474166 -0.07595717
000030 db 1e cf 3d a2 54 39 3d cb f0 83 bd 5a 45 99 3d
       0.10113307 0.045246728 -0.06442412 0.07483931
000040 82 09 99 3d 11 cc 99 bd 29 c8 c4 3d 83 2b 68 3d
       0.074725166 -0.07509626 0.0960849 0.05668212
000050 be 3f 8b 3d 1c c6 01 bd a5 84 ad bb 95 60 5b 3d
       0.06799267 -0.031683072 -0.0052953535 0.053558905
000060 37 cd 71 3d e0 8b 97 3d db 2d ac bd 78 d3 bf bd
       0.0590336 0.07399726 -0.08407184 -0.09366506
000070 70 b2 89 3d 64 81 07 bd 96 30 4f 3d ec fc 79 3d
       0.067234874 -0.03308238 0.050583445 0.06103222
000080 ec a4 9a bd 51 da 81 3d 57 4d a6 3d 44 b4 83 3d
       -0.075509876 0.06340469 0.0812022 0.06430867
000090 7c 96 e4 3c e4 4f 57 3b 51 15 d3 3b 39 dd cb 3d
       0.027903788 0.0032854015 0.00644175 0.09954304
0000a0 d5 a8 d5 bc ab 0b 3a 3d a9 60 4b bc 48 14 8b 3d
       -0.026081482 0.045421284 -0.012413182 0.06790978
0000b0 69 d4 e3 bc c9 a5 b3 3d dd a9 98 3d 48 97 c1 bd
       -0.027811246 0.087718554 0.07454274 -0.09452683
0000c0 34 41 37 3d 16 2c 92 3d 35 46 b1 bc 3d 89 94 bc
       0.044739917 0.07137315 -0.021639923 -0.018131847
0000d0 7b ea 85 3c bc 98 1b 3d 1b bb a3 3d 96 41 90 3c
       0.01634716 0.037987456 0.07994672 0.017609399
0000e0 66 b8 02 3d de 89 2f 3d df b3 0a bd 85 61 ba 3d
       0.031914137 0.04285609 -0.033862945 0.091006316
0000f0 27 22 48 3d c4 8a 24 bd f4 45 a7 bd 1d 07 bf bd
       0.048860695 -0.0401714 -0.081676394 -0.093275286
000100 6f 13 a8 3d 8a dc 13 bd 47 6e 1f bd 24 e3 21 bd
       0.08206832 -0.036098994 -0.038923528 -0.03952326
000110 4d 4c 79 bc 6c d1 85 bc c5 05 c4 bd 66 d3 0a 3d
       -0.015215945 -0.016335212 -0.09571413 0.03389301
000120 54 17 5d 3d 24 ae 25 bd ec e9 8e bd 84 30 e1 3c
       0.053977326 -0.040449277 -0.06978211 0.027488954
000130 81 22 f2 bc 24 c3 36 bc 5c 09 32 bd b9 82 ca 3c
       -0.029557468 -0.011154924 -0.043465957 0.024720537
000140 98 f3 48 3d ab bb 74 bd 88 9e c0 bc 4d 7b 7a 3d
       0.049060434 -0.059749287 -0.023513094 0.061152745
000150 d3 c5 8d bd d0 de 41 3d e9 0a 89 3c 1b ad 83 3d
       -0.069224976 0.04733163 0.016728835 0.064295016
000160 ad d6 24 3c 9c b9 5f 3d ac 0c 17 3d 31 33 7d 3c
       0.010060948 0.05462037 0.03687732 0.0154540995
000170 35 83 56 3d ef e9 fd 3b b2 5d ab bd 2a 62 57 3d
       0.052371223 0.0077488343 -0.0836748 0.05258385
000180 8f 59 28 bd 1f 92 a3 bd 64 13 02 bd 0f 18 d4 3c
       -0.041101035 -0.07986855 -0.031756774 0.025890378
000190 06 0a 30 b9 42 26 1f bd 6d 87 95 bd 20 b6 47 bd
       -0.00016788402 -0.038854845 -0.07301221 -0.048757672
0001a0 82 79 52 bd f0 b4 3f 3d 78 13 6f 3d e8 b5 a3 3c
       -0.05138541 0.046803415 0.058368176 0.0199842
0001b0 3c d9 a4 bc 38 e2 6d 3d 28 a5 c7 3d ea 86 4c bd
       -0.020123117 0.058077067 0.09748298 -0.04993335
0001c0 bd 7d ff bb 58 14 84 3b a1 1e 40 3d 31 6d 9c 3d
       -0.0077969716 0.0040307455 0.04690421 0.07638014
0001d0 3f ad 4c 3d f1 13 63 3d 68 7a bd bd 27 ac a5 bd
       0.049969908 0.05543894 -0.09251863 -0.08089476
0001e0 51 c0 a7 3d 27 1e c5 bc d6 b3 9f bd 87 40 d4 3d
       0.08190978 -0.02406223 -0.07797973 0.1036387
0001f0 00 99 8a 3d a4 fc 78 3a b3 73 49 bd af e6 da bc
       0.06767464 0.00094980956 -0.049182605 -0.026721327
000200 ec e4 94 3d 55 9c c4 3d 68 dc 30 3d fe 00 a9 bc
       0.07270226 0.096001305 0.043178946 -0.020630356
000210 bb 00 af 3c d2 05 d4 bd af e6 a5 bc de c7 a6 3a
       0.021362653 -0.10352673 -0.0202516 0.001272436
000220 5f 33 2a 3d 0b b3 49 3d b2 bb 70 bd 93 ef 1e bd
       0.041552898 0.049243014 -0.05877275 -0.038802695
000230 48 3c 9a bd 74 9c 24 bc b1 e5 cc 3d 83 6d aa 3a
       -0.07531029 -0.010047067 0.10004748 0.0013002608
000240 04 67 f1 3c b7 a8 df 3c 14 53 13 bd 18 3e 90 bd
       0.029468067 0.02730213 -0.0359679 -0.070430934
000250 46 5f f9 3c a6 c9 45 3d b5 30 d0 3d b2 54 91 bc
       0.030440938 0.04828801 0.1016554 -0.017740581
000260 23 41 78 bd 5f e0 be 3d c0 05 9e bd a0 5c 80 3d
       -0.060608994 0.09320139 -0.077159405 0.06267667
000270 2b f6 d4 bd 57 f7 96 3c a2 95 ce bd fc 24 df 3c
       -0.10398515 0.018428488 -0.10087134 0.027239315
000280 22 ff 9c 3d 0b 75 c8 ba a3 b6 33 bc d4 ae 14 3d
       0.0766585 -0.0015293671 -0.010968837 0.03629954
000290 31 14 c3 bd e6 e6 be bd 99 70 82 bc a8 63 09 bc
       -0.095253356 -0.09321384 -0.015922831 -0.008385576
0002a0 41 87 75 3d b3 7c 95 3d 18 d7 d0 bd a8 05 b7 3d
       0.05994344 0.07299175 -0.10197276 0.08936626
0002b0 4f 29 b6 bc 5f ff 81 bd 8e 4d ac 3d 88 d8 c8 3d
       -0.022236494 -0.06347536 0.0841323 0.09806925
0002c0 48 71 31 3d 5d c2 37 bd 3b dd 1c bd 0c 4d cb bd
       0.043320924 -0.044863094 -0.03829692 -0.09926805
0002d0 82 6a 92 bd fa 1c 73 bd 2c 9e 1a bd 3a 99 a8 3d
       -0.07149221 -0.059353806 -0.0377485 0.08232351
0002e0 f3 40 59 bc 73 e5 4a 3d 96 e7 95 3d 48 cb bf 3d
       -0.013260114 0.049535226 0.07319562 0.09364945
0002f0 30 81 9a 3d 92 ba 5c bd 3a 58 7e 3c 44 3b fb bc
       0.07544172 -0.053888865 0.015523965 -0.030667908
000300 fc 35 a5 bd f1 e2 a7 3d 77 ad 70 3d 5f da 41 bc
       -0.08066937 0.081975825 0.05875918 -0.011831849
000310 dd d7 1e 3d a6 b0 a8 bd 51 bf 20 bc 18 76 51 bd
       0.038780082 -0.08236818 -0.009811238 -0.051138014
000320 88 49 4d 3d 6a 8e 09 3d a8 15 b0 bc bf 8f 6a bd
       0.050118953 0.033583082 -0.021494702 -0.057265993
000330 fb fd 65 3d 89 aa f5 bc ad e3 bd 3d d4 17 be 3d
       0.056150418 -0.029988544 0.09271941 0.092818886
000340 4b fd 09 3d 04 b7 d5 3d 0f e2 b3 bd d0 d8 d5 3c
       0.033688825 0.10435298 -0.08783352 0.02610436
000350 38 8f c3 bd 31 18 6f bd 59 47 ad 3d 66 3b 71 3d
       -0.09548801 -0.05837268 0.08460874 0.058894537
000360 1e af b5 bb 4d ac ad bc c8 c7 b7 bc 0b 5c 05 3c
       -0.0055445572 -0.021200323 -0.02243413 0.008139621
000370 86 89 8a 3d 16 ee 81 bd ad c1 63 3d 86 b3 5c bd
       0.06764512 -0.063442394 0.055604625 -0.053882144
000380 a8 4b 87 bd a5 77 89 3d 91 39 bf 3d 9b 14 cc 3d
       -0.06606227 0.067122735 0.09337152 0.09964868
000390 ce bb 91 bc c7 fa 89 bd 88 89 1a 3d ff 6f 8a 3c
       -0.017789748 -0.06737285 0.037728816 0.016899107
0003a0 1b d7 35 3d a2 c0 a6 3d c7 c0 f3 bc 3c 45 7d bd
       0.044394594 0.081422105 -0.02975501 -0.061833605
0003b0 49 85 ee 3b 81 fd 85 bc 00 fa b5 3d 8d fe 81 bd
       0.0072790724 -0.016356232 0.08885574 -0.0634738
0003c0 d6 19 a3 bd 54 11 9f bd 36 e4 96 bd 38 bc 69 bc
       -0.07963912 -0.07766977 -0.073677465 -0.014266066
0003d0 61 85 65 3d db fc 78 3c e2 2f 9a 3b 49 23 11 3d
       0.056035403 0.015197004 0.004705415 0.03543404
0003e0 a9 61 79 bc 67 61 11 3d e0 d9 c3 3c ec 95 5e bd
       -0.015221038 0.03549328 0.023907602 -0.054342195
0003f0 9b 83 a4 3d a2 f6 5f bd dc 7d b9 3d f8 54 23 bc
       0.08032914 -0.054678567 0.09057209 -0.009968989

bias f4 [16]
000000 f1 f6 86 bd 6f 51 ba 3d 8c bf 9d bd 59 c6 d5 3d
       -0.06590069 0.090975635 -0.0770255 0.104382224
000010 76 e8 0d bc 61 16 c1 3d 50 b5 d5 bd 3e d0 ba 3d
       -0.00866138 0.094280966 -0.10434973 0.0912175
000020 4f 82 d8 3c 9c a4 54 bd b2 96 9b bd fc c9 ae 3c
       0.026429323 -0.051914796 -0.07597102 0.021336548
000030 cd 41 d1 bd 88 fd db 3c f1 03 30 3d b6 8a 58 3d
       -0.10217629 0.026854292 0.04297251 0.05286666

weight f4 [16, 16]
000000 78 ef 49 bd d0 fd 19 3d fa c2 34 be d0 a4 1b be
       -0.04930064 0.03759557 -0.17652503 -0.1519959
000010 e0 6c 94 bb 4a 3f 33 3e 40 ae c7 3b 43 44 50 be
       -0.0045295805 0.17504612 0.0060937703 -0.2033854
000020 7c 61 36 3e 8c ee d8 3d 3a 08 00 3e 24 bc 3b bd
       0.17810625 0.10592374 0.12503138 -0.04583372
000030 c0 28 d8 bd 30 76 b1 3c 87 7e 2d be f2 e6 6a be
       -0.105546474 0.021662802 -0.16942798 -0.22939661
000040 16 10 5a be f6 fb 0e 3e 8e f3 27 3e 74 78 f8 bd
       -0.21295199 0.13963303 0.16401502 -0.121323496
000050 08 7f d6 3d 2c d6 2f 3e 56 b6 62 3e 8c 56 0c 3e
       0.10473448 0.17171544 0.22139868 0.1370489
000060 52 03 08 3e 22 01 59 3e e6 53 bb bd e7 62 72 be
       0.13282517 0.21191838 -0.09146862 -0.23670541
000070 10 17 35 be f8 a5 0e 3e 00 77 f8 3c da 90 21 be
       -0.17684579 0.139305 0.030330181 -0.15777913
000080 06 c9 45 be 40 c3 eb 3b 70 b9 f2 3d c4 4d 4c bd
       -0.19314966 0.0071949065 0.11851776 -0.04987885
000090 88 ec 29 3e de 85 d5 bd 50 4f 13 3e a0 76 69 3e
       0.16594136 -0.10425924 0.14385724 0.22799158
0000a0 90 32 79 3d 40 52 6b bc a0 7a fb 3c f0 14 ac 3c
       0.060839236 -0.014362872 0.03069812 0.021006078
0000b0 2c 66 48 be 0a c6 1c 3e 54 1a 62 3e 4c 19 0f 3e
       -0.19570225 0.15309921 0.22080356 0.13974494
0000c0 60 49 61 3c d2 6b 12 3e a0 f4 bd 3c 9e 1a ac bd
       0.013750404 0.14298943 0.023187935 -0.08403514
0000d0 f2 35 0f 3e b0 e9 d4 3d 0a 34 a5 bd cf 27 17 be
       0.13985422 0.10396135 -0.08066566 -0.1476128
0000e0 48 00 23 3e b0 09 5e be 44 1f 66 be fc 93 3b 3e
       0.15918076 -0.21683383 -0.22472864 0.1831817
0000f0 57 b2 1d be d8 43 9a 3d 51 56 4b be 24 5f 31 3e
       -0.15400063 0.075324714 -0.19857146 0.1732145
000100 96 06 84 bd 68 9b 9b 3d 00 9c b9 bc 1d 92 15 be
       -0.06446569 0.07598001 -0.022657394 -0.14606519
000110 4c df e5 3d b0 8b ec bc b0 a6 87 bc 00 22 87 3b
       0.11224231 -0.028875202 -0.016558975 0.004123926
000120 2c 05 2f 3e e5 85 79 be 8e 8b ee bd 78 1a 25 be
       0.17091817 -0.24367483 -0.11647712 -0.16123378
000130 b4 e3 50 3e 80 e7 70 3d 84 de 3b be 7f 87 4d be
       0.20399362 0.058814526 -0.18346602 -0.20071219
000140 9c ee 5d 3e d6 0a 08 be 08 ab 33 3d b7 93 79 be
       0.21673054 -0.13285384 0.04386428 -0.24372755
000150 e0 99 85 3c 31 b6 61 be e9 af 13 be 26 f5 79 3e
       0.016308725 -0.22042157 -0.14422573 0.24409923
000160 3c 21 de 3d 00 28 48 3b cc bd 57 bd d0 a4 ac bd
       0.10846183 0.003054142 -0.05267124 -0.08429873
000170 db 31 0b be f8 a7 23 be 3c 14 34 be 42 3f 04 3e
       -0.13593237 -0.15982044 -0.17585844 0.12914756
000180 b0 bf 18 3d 74 d4 7d 3e 10 72 01 bd fc 50 87 3d
       0.037292182 0.24788076 -0.03160292 0.066072434
000190 78 27 9e 3d 2c 46 ce 3d 98 c9 55 3e 14 6f 01 be
       0.07722372 0.10071978 0.20877683 -0.12640029
0001a0 94 6f 79 3e 10 2d 2f bd 50 65 d0 3c 90 12 56 bc
       0.2435897 -0.042767584 0.025438935 -0.013065949
0001b0 43 2c 52 be da 46 60 3e 87 4c 25 be e8 5e 29 be
       -0.20524697 0.21902028 -0.16142474 -0.1654011
0001c0 3e 9a 66 3e 4a 78 13 3e ee ee 6a 3e fc e4 b2 3d
       0.22519776 0.14401355 0.22942707 0.087350816
0001d0 f4 c9 fc 3d c0 14 20 3c 88 b8 e5 3d 4a db 6f 3e
       0.12343207 0.009770572 0.11216837 0.23423496
0001e0 f0 82 d6 3c 50 5e 93 3d c0 17 f8 bb bc e2 f2 bd
       0.026185483 0.07195723 -0.0075711906 -0.118596524
0001f0 94 d8 3b 3e 48 3e c4 3d f0 51 eb 3d 1e 2a 69 be
       0.18344337 0.09582192 0.11490238 -0.22769973
000200 70 6d 63 bd 8c eb 97 3d 1c 5b fc 3d 48 57 f9 bd
       -0.05552429 0.07417974 0.12322065 -0.12174851
000210 d0 36 31 3e 6f f5 7a be 70 f1 63 be 23 3d 0f be
       0.17306066 -0.24507688 -0.2226007 -0.13988166
000220 00 3e 00 bd 00 a0 60 b9 60 71 92 3c b0 64 33 3d
       -0.031309128 -0.0002142191 0.017876327 0.043797195
000230 56 3a 32 be 54 56 e0 3d 30 66 50 3d 30 b4 1e bc
       -0.17405066 0.10953966 0.050878704 -0.009686515
000240 60 ae 3e 3d ec 81 00 bd f0 43 02 bc 9d 46 6c be
       0.046553016 -0.031373903 -0.007950768 -0.23073812
000250 2e 5a 4b be c6 51 2d 3e 06 f2 08 3e c8 8d 77 3d
       -0.1985862 0.16925725 0.13373575 0.060437948
000260 ca 4f 32 3e 5c 21 63 3e 86 71 97 bd ea e6 a1 bd
       0.1741325 0.22180694 -0.073947 -0.079053715
000270 39 8d 43 be 88 69 9e bd 5a 11 02 be b8 33 e2 bd
       -0.19096841 -0.07734972 -0.12701932 -0.11045021
000280 b6 54 51 be 32 1d 55 3e f8 a6 1a 3e 00 33 cb bd
       -0.20442471 0.20811918 0.15102756 -0.09921837
000290 4c c6 95 3d 72 3c 9a bd 60 50 08 3d 93 68 7a be
       0.07313213 -0.0753106 0.033279777 -0.24453954
0002a0 68 0d 61 3e dc 68 eb 3d 8e 20 35 3e f4 67 98 3d
       0.2197777 0.1149461 0.176882 0.074417025
0002b0 c0 dc 57 3c 78 4d fe bc 1c e6 7f 3e c0 20 34 3d
       0.0131751895 -0.0310428 0.24990124 0.043976545
0002c0 ce 0a 11 be d8 40 08 bd 7c 0d d8 bd 7e 3a 3d be
       -0.14164278 -0.033264965 -0.10549447 -0.18479344
0002d0 a0 14 b7 3d ba 37 5b be 50 f9 e1 bc 7e 21 2b be
       0.08939481 -0.21407977 -0.027584702 -0.16711995
0002e0 d0 de 4f 3d 00 c1 18 3c 90 f1 05 bc 26 ab 4f 3e
       0.0507496 0.009323359 -0.008175269 0.20280132
0002f0 72 1f 78 3e a0 1c 4a 3d 78 de 6a 3e 3c 50 dc 3d
       0.24230745 0.049343705 0.22936428 0.10757491
000300 7e a5 48 3e ea 68 44 3e 74 57 a2 3d 4c ac 6b 3e
       0.1959438 0.19180647 0.079268366 0.23014945
000310 db dd 75 be 2c e7 94 3d e0 5d 13 3d 88 06 33 bd
       -0.24010412 0.07270655 0.035978198 -0.0437074
000320 18 21 47 be 6c 22 52 3e 1c 99 40 bd 08 23 5f bd
       -0.19446218 0.20520943 -0.047021016 -0.054476768
000330 ce 79 c6 bd 35 d7 3c be 1c 15 03 3e 08 08 0b 3d
       -0.09691201 -0.1844147 0.12801021 0.033943206
000340 28 fa 2b 3d 76 11 60 3e 82 0d 64 3e 80 7a ab 3b
       0.041986614 0.21881661 0.22270778 0.005233109
000350 4c 18 79 3e 5a 27 58 3e c7 b1 2f be 92 97 5f 3e
       0.24325675 0.21108761 -0.1715766 0.21835163
000360 80 a0 0f bb ea 8b 2f 3e f8 b7 0c be 4e fb 08 be
       -0.0021915734 0.17143217 -0.13742054 -0.13377115
000370 36 7c 05 3e 54 24 e5 bd 09 ac 0c be 40 da 87 3c
       0.13035664 -0.1118857 -0.13737501 0.016583562
000380 e0 79 4a be 56 ca 6f 3e a0 fd 6a 3c 7a 80 05 3e
       -0.19773054 0.23417029 0.0143426955 0.13037291
000390 31 d8 69 be c8 71 05 be e0 c0 18 be be c1 4c 3e
       -0.22836377 -0.13031685 -0.14917326 0.19995782
0003a0 c0 ea c5 3b 00 09 4e 3c 40 3d 35 bd 7e ef 23 be
       0.0060399473 0.012575388 -0.044247866 -0.16009328
0003b0 32 81 99 bd 78 40 2c be a0 11 00 3d 3e 97 72 3e
       -0.07495345 -0.16821468 0.03126681 0.23690507
0003c0 20 7d c1 bd 38 eb 13 3e 20 55 10 3c c8 7d 2b be
       -0.09447694 0.14445198 0.008809358 -0.167472
0003d0 3e 4d 10 be 40 2b e6 3d 2a 96 21 be 44 cb 6e be
       -0.14091966 0.11238718 -0.1577994 -0.23319727
0003e0 88 06 47 3e 90 d2 38 be d4 ed 6a 3e 28 34 38 3e
       0.19436085 -0.18049073 0.22942287 0.17988646
0003f0 50 58 05 3e 6a b1 5d be 70 3f 8b 3c 38 0d 8c bc
       0.1302197 -0.2164971 0.016998023 -0.017096147

bias f4 [16]
000000 78 33 6a 3e 10 35 0f bc 6d d7 00 be 8d 61 75 be
       0.22871196 -0.008740678 -0.12582178 -0.23962994
000010 80 4c c3 bc 34 a4 35 be b4 c0 86 3d 00 06 d7 3d
       -0.023840189 -0.1773842 0.06579724 0.10499191
000020 00 53 00 3d 9c 13 3f 3e 54 13 29 3e 24 96 ec 3d
       0.031329155 0.18659824 0.1651128 0.115520746
000030 d4 28 fe 3d 45 45 40 be d4 b4 c1 bd 60 64 49 3c
       0.12410131 -0.18776424 -0.09458318 0.012291998

weight f4 [16, 16]
000000 69 37 de 3e 3d 02 38 3e 81 a8 cd bd a4 df 54 3d
       0.4340165 0.17969604 -0.10041905 0.051971093
000010 2c 59 cc bd 1c fc 5b 3e 12 8e 5e 3d 11 41 d1 be
       -0.09977946 0.21482891 0.054334708 -0.40869954
000020 ce 21 b1 3e dc b3 b3 bd bc 7d 93 be 54 ba 8a be
       0.34596103 -0.0877454 -0.28806865 -0.27095282
000030 e3 94 01 bf ee 06 93 be 37 1b 6f 3e 07 2f 25 be
       -0.5061781 -0.28716224 0.23350225 -0.16131221
000040 a7 63 1b 3f 1c 6b 06 3d ad 25 2b be 7d 2a 0c bf
       0.6069893 0.03281699 -0.16713591 -0.5475233
000050 5e b6 d1 3d 01 40 ae bd 6b fc 81 3e 83 6e 46 be
       0.10239862 -0.085083015 0.25387892 -0.19378094
000060 eb 22 12 be d2 72 f9 3e 1c b8 f6 be 4c f7 7e be
       -0.14271133 0.48720413 -0.4818734 -0.24899024
000070 5b a7 b3 3b 10 fb 9f 3e 23 4b 00 be 65 56 8d be
       0.005482597 0.31246233 -0.12528662 -0.27604976
000080 08 21 5e 3d 86 79 7f bc 28 ef 1c 3e a7 6d 8e be
       0.05423072 -0.015592938 0.15325606 -0.27818033
000090 b4 63 ad 3d a6 52 95 3d a9 76 3c be 1a 76 da 3e
       0.084662825 0.072911546 -0.1840464 0.4266823
0000a0 2e 50 00 3e a8 51 09 3d 63 2e 2a bd 42 6f 62 3e
       0.12530586 0.03352514 -0.041548144 0.22112754
0000b0 64 b0 04 3e 7a e0 03 3e ab 26 80 be 85 79 99 bd
       0.12957913 0.128786 -0.250295 -0.07493881
0000c0 98 1b 0a be 18 89 a2 bd 3e 3c 4c 3d 39 b5 9b 3e
       -0.13487089 -0.07936305 0.04986214 0.304117
0000d0 bb 10 1d be 02 7b 92 bd f0 0e 29 3e 3b 2d de bd
       -0.15338413 -0.07152368 0.16509604 -0.10848471
0000e0 f4 c4 6e be b2 6d f5 be 0a 6c 42 be d3 c9 82 be
       -0.23317319 -0.47935253 -0.18986526 -0.25544605
0000f0 9e 01 0f 3c 37 5b f6 3d 2a 32 ba 3e c9 05 4f 3e
       0.008728413 0.120291166 0.36366397 0.2021705
000100 c0 63 7b 3d 05 3a c2 bc 80 1b 99 bc ce f1 89 3b
       0.061374426 -0.023709306 -0.01868987 0.0042097336
000110 40 75 b4 3b 84 93 1b bd be a5 a8 bc 55 9e a4 be
       0.0055071414 -0.03798248 -0.020586845 -0.32152048
000120 e4 d0 5c be f7 5b 99 be 97 cc c7 bd 0d 4a 77 be
       -0.2156406 -0.29952976 -0.09755819 -0.24149342
000130 75 fc 42 be 04 91 40 bd 4c 86 17 3f 78 32 61 3e
       -0.19041617 -0.047013298 0.59189296 0.21991909
000140 cf bd ec 3d be 7b 83 3c 99 c4 82 3d 66 c0 4c be
       0.115596406 0.016050216 0.06385154 -0.19995269
000150 50 66 5a be c2 f1 23 be b2 5d 09 bc 62 29 47 3e
       -0.21328092 -0.16010192 -0.008384155 0.1944938
000160 17 67 a1 be 60 5b 90 be 03 6f 78 3b b0 92 d4 3d
       -0.31523964 -0.28194714 0.0037907965 0.10379541
000170 a3 d4 d1 3e c7 f4 60 3d 85 fa 36 be 01 90 27 3e
       0.4098254 0.054920938 -0.17869003 0.16363527
000180 9c 5b 0b 3f cf 08 4d 3d 74 c2 b7 bd a7 24 ce be
       0.5443666 0.05005723 -0.08972636 -0.4026234
000190 75 5d 2c bd 6a 5a 16 be ea 7e 8b 3e d3 f9 26 be
       -0.042081315 -0.14682928 0.27245265 -0.16306238
0001a0 12 e3 42 be f5 f1 ac 3e b7 4b dd be 68 17 8f be
       -0.19031933 0.3377835 -0.43221828 -0.27947545
0001b0 1c 0f 64 be 65 c7 a5 3d 09 ae bd bd fb 1d 58 bb
       -0.22271389 0.08094672 -0.0926171 -0.0032976854
0001c0 9d c0 bf bc 0a bf 0d be 6c 95 a1 3e 65 3e a0 be
       -0.023407275 -0.13842407 0.31559312 -0.31297603
0001d0 f4 36 c8 be 1b 46 2b be 65 60 67 be 2e 49 11 3c
       -0.39104426 -0.16725962 -0.22595365 0.008867545
0001e0 b5 d7 93 be 9a ed 77 be 87 a3 05 be 67 a9 f3 3c
       -0.2887551 -0.24211732 -0.13050662 0.029743863
0001f0 17 c0 09 3e 48 d0 2f 3c fd 8c 60 be ef c6 41 3e
       0.13452183 0.01073081 -0.21928783 0.18923543
000200 fd e0 24 3e cf 0e 2e be 47 14 02 3e b2 65 78 bd
       0.16101451 -0.16997837 0.12703048 -0.06064386
000210 2a 70 97 be e1 5c 83 be 94 96 8a bd c7 82 6a 3e
       -0.29577762 -0.25656798 -0.06767002 0.2290145
000220 de 54 fe bd f7 2a 28 be 19 08 d6 3a e7 82 20 3e
       -0.12418531 -0.1642264 0.0016329318 0.15674935
000230 16 8d cb 3e 2c e5 20 be 4c 8b 57 be 96 ac a9 3e
       0.39756078 -0.15712422 -0.21049231 0.33139485
000240 45 4c 09 3f 6d 58 b9 bd cc bf 3e be 7b 97 1e bf
       0.53632003 -0.09050069 -0.18627852 -0.6194989
000250 ee ae e6 3d 8d 85 b5 bd ed 77 75 3e 68 25 2d bd
       0.11263834 -0.088633634 0.2397153 -0.042272
000260 bd 9a ba be d7 fc ee 3e 29 56 f4 be f9 a6 eb bd
       -0.3644618 0.46677276 -0.47721985 -0.11506457
000270 f6 32 ae 3c ad a6 aa 3e 09 0e 41 3d 01 6d 85 be
       0.021264534 0.3333029 0.047132526 -0.26059726
000280 ef f4 85 bd 52 f8 35 3d 86 d3 b0 3d 5c 90 77 3e
       -0.06540858 0.04442627 0.08634095 0.24176162
000290 bd f5 c9 bc 0e 64 1f be 93 97 39 3e 3e 19 2b be
       -0.02465331 -0.15565512 0.18124227 -0.16708848
0002a0 98 eb c8 be a9 bb 7c be 5d c9 cc 3c 0f 47 89 be
       -0.39242244 -0.24680962 0.024998361 -0.26812026
0002b0 68 3c 47 be 2d 82 96 3d 84 82 50 3e 43 5c fb 3e
       -0.19456637 0.07349048 0.20362288 0.49093828
0002c0 d9 ec dd 17 85 d3 49 2d bb c2 10 b7 66 8f ae b2
       1.4341579e-24 1.1472494e-11 -8.628408e-06 -2.0321476e-08
0002d0 79 30 0d 37 a1 fa 16 38 6b 02 60 32 7b f9 87 b5
       8.415541e-06 3.5996203e-05 1.3039066e-08 -1.0130892e-06
0002e0 bb e6 de 31 ca bf 0d 9d 45 03 87 b1 96 f4 15 36
       6.4872814e-09 -1.8760347e-21 -3.929389e-09 2.2345098e-06
0002f0 35 d2 d3 b7 46 03 35 b2 43 ea c8 b5 97 54 8c b5
       -2.5251045e-05 -1.0536331e-08 -1.496934e-06 -1.0455432e-06
000300 90 99 0d 3e bc 7d 53 3d cb b9 29 3e 3d 4d 51 be
       0.1382811 0.05163358 0.1657478 -0.2043962
000310 e0 a3 92 be c5 66 30 bc 75 b3 32 be 70 dc c8 3e
       -0.28640652 -0.01076669 -0.1745127 0.3923068
000320 bf 11 18 bd 00 64 06 be 25 73 47 bc 8a 89 f6 3d
       -0.0371263 -0.13124084 -0.012173449 0.12037952
000330 8b 04 80 3e 35 c9 4e 3e 0f ef de be 61 86 a4 3d
       0.25003466 0.20193942 -0.43541762 0.08033443
000340 3e 3b 18 3f a6 92 02 bc 1b de cc bb d8 8e c9 be
       0.59465396 -0.007969534 -0.006252063 -0.39366794
000350 7c e4 a5 bb b4 53 24 bd 44 f3 77 3e 7d 47 cc bd
       -0.005062638 -0.040118888 0.24213892 -0.09974573
000360 2a 99 84 bd 33 7c 66 3d 3f 99 01 bf c6 84 25 be
       -0.06474526 0.05627079 -0.5062446 -0.1616393
000370 77 d7 5f be b2 1a f7 3c b1 25 84 bd b3 7c 90 3c
       -0.21859537 0.030164097 -0.064525016 0.017637586
000380 04 b2 d9 3d b4 a9 81 3b 9f c8 93 3e 0b d4 2e 3d
       0.10629657 0.0039569978 0.28864 0.04268269
000390 0a 81 5e be a9 01 a4 be 63 5c bc bd 0e 39 12 3e
       -0.21728912 -0.32032517 -0.09197309 0.14279577
0003a0 07 e9 e5 bd 05 c2 59 be ae ff 41 be 90 17 50 3e
       -0.11226087 -0.21265419 -0.1894519 0.20321488
0003b0 4a 7e b8 3e 44 14 da 3d 5d 47 5a be d7 77 81 3e
       0.3603385 0.106483966 -0.21316285 0.25286743
0003c0 9b 31 a1 3d 07 87 5c be 34 eb 76 bc 91 27 88 3e
       0.078707896 -0.21535884 -0.015070725 0.26592687
0003d0 dd 8e 46 be 81 d3 70 be dc dd 58 3c 09 42 70 be
       -0.19390436 -0.23518182 0.013236489 -0.2346269
0003e0 ee 69 b5 be 18 e9 3a be 95 73 d6 bc 1b 3e 85 be
       -0.3543238 -0.1825298 -0.02617816 -0.26023945
0003f0 89 0d 92 bd 27 c5 e4 3c da b9 c5 3e 34 6f 04 3f
       -0.07131488 0.02792604 0.38618356 0.5173218

bias f4 [16]
000000 07 d3 cd 3d 27 74 b6 3b 3d 99 01 3e 55 ed a8 3d
       0.10050016 0.0055680457 0.12656112 0.082483925
000010 05 31 4e 3d ba 90 d3 3c 4a af 99 3d de 03 6b 3c
       0.050339717 0.025825847 0.07504137 0.014344184
000020 9b 95 71 bd b3 d1 01 be 1d a6 36 be 50 be b8 bb
       -0.058980566 -0.1267765 -0.17836805 -0.0056379214
000030 b4 20 06 3e bd ea 85 3e 3d e8 68 bd 6c eb d9 bc
       0.13098413 0.26155654 -0.056862105 -0.026601516

weight f4 [3, 16]
000000 79 1a 1f bd 76 30 c4 be 61 3d 00 3e 6f 8f 83 3d
       -0.038843606 -0.38318223 0.12523414 0.06423842
000010 76 30 43 3d 5e ac 85 3d 7c c9 b3 be 84 1b 86 3d
       0.047653638 0.06527017 -0.35114658 0.06548217
000020 8a a5 1e 3e f2 38 13 bf 76 1c 7e 3e 38 e4 2d b4
       0.15492836 -0.57508767 0.24815544 -1.6194906e-07
000030 d6 19 01 bc 4f d9 cf be d9 7b 07 3e ea 87 f9 3d
       -0.007879695 -0.4059548 0.13230838 0.12184127
000040 59 d8 c4 3e ac db 75 3e 6c e4 15 be f3 a2 71 bc
       0.3844631 0.2400958 -0.14637917 -0.014748323
000050 05 85 86 3d c2 f3 c7 be 26 54 42 3e b3 bf 9d be
       0.0656834 -0.3905316 0.18977413 -0.30810317
000060 e3 28 c5 be 72 a0 35 3e cb 33 28 3e 67 fe 9d af
       -0.38507757 0.17736986 0.16426007 -2.8738897e-10
000070 81 c9 c5 be c3 06 10 3e 67 1f 9e be bd e9 78 3d
       -0.38630298 0.1406508 -0.30883333 0.060769785
000080 61 a9 94 bd 69 25 4e 3e 3e c4 71 3e 82 8e b5 be
       -0.07258869 0.20131458 0.23610017 -0.35460287
000090 39 99 b1 be d7 cd 00 3d 17 a5 49 3e 3b 4a 8d 3d
       -0.34687212 0.031446304 0.19691883 0.06898924
0000a0 16 5d ef 3d 9a 86 50 3e e5 0f b2 be 24 b4 4c 36
       0.116876766 0.20363846 -0.34777752 3.0503224e-06
0000b0 cc 81 89 3d 93 b6 b5 3d e7 ff 26 3e 17 14 bd be
       0.0671421 0.08872714 0.16308556 -0.3692939

bias f4 [3]
000000 2b 31 10 be 48 b5 51 3d 0f 52 3c 3c
       -0.14081256 0.051198274 0.011494174
