results/IMDB-BINARY_GCN.pth (torch, 30747 bytes, 12 tensors)

weight f4 [136, 16]
-5.993028e-22 -4.2702763e-05 -2.7112877e-05 -1.3218272e-18 8.958604e-05 -6.6333205e-06 -8.1449507e-22 -5.5713514e-08
5.6808785e-06 -6.411402e-22 2.9195937e-06 -2.2862725e-05 6.732221e-08 9.603698e-08 2.1973496e-20 1.7354386e-18
-0.19604167 -0.11005169 -0.22005846 0.2162776 0.18783374 -0.25159535 -0.17348847 0.20778088
0.26187503 -0.30327883 0.17331725 -0.20064732 0.19860129 -0.19599295 -0.17672555 0.18570414
0.16917697 0.57555354 0.39210325 -0.39034706 -0.3836117 0.35046706 0.32762367 -0.35429832
-0.3395004 0.6131693 -0.22941619 0.40780994 -0.3582817 0.40913972 0.49134526 -0.3486076
-0.20515719 -0.02534198 0.16102727 -0.14768116 -0.081180945 0.15187849 0.37535867 -0.044524014
-0.112499975 0.090096086 0.023217754 0.36856627 -0.009422783 0.09240023 0.09386982 -0.021800548
-0.040527496 0.08485242 0.14073022 0.032546222 -0.006445009 0.18128642 0.24749288 0.11133806
-0.02677743 0.050613258 -0.2682742 -0.047406867 0.17678902 0.18109527 0.16121309 0.07033201
0.056609657 -0.3315364 0.071319535 -0.01565454 0.09155538 0.12809594 -0.14449862 -0.0012940126
0.0050090523 0.19079933 0.07591506 -0.03483482 0.096300244 0.07359266 0.005685336 -0.04205249
0.2093571 0.23134722 -0.02626827 0.1656745 0.16498667 0.15932675 -0.08078039 -0.051402304
0.04336484 0.00076038134 -0.04157668 -0.018697724 0.03375558 0.0763006 0.09260982 -0.11123007
-0.36894694 0.16123919 0.09403259 0.039102156 -0.03638759 -0.2216021 0.11414932 0.16420303
-0.055706084 -0.29204828 0.15908737 -0.020641502 -0.058197815 -0.0033315811 -0.15075694 -0.031980634
0.2433861 -0.48746496 -0.22280169 -0.07690406 0.11851569 0.041885227 0.10669893 -0.049084906
0.04424514 -0.13962537 0.18918832 -0.52602077 0.1984783 0.11249165 -0.037621222 0.13365129
0.08610941 0.15358245 0.115328774 0.08051512 0.056415085 -0.04106763 0.14354332 -0.18784955
0.10925235 -0.067131005 0.07770717 0.13980341 0.032238316 -0.015326857 0.06262678 0.14594632
-0.062740065 -0.14124714 -0.22239858 0.023156015 0.25682786 -0.44428572 -0.112669125 0.069328874
0.14022662 -0.0026035663 -0.0008128598 -0.31311804 0.26941133 0.01695195 0.052047864 0.24983723
-0.3412536 -0.102634415 -0.30294487 0.17641892 -0.033625823 0.119034424 -0.2719679 0.23031084
0.24540108 -0.38789862 -0.044845793 0.03795235 0.08981603 0.091685824 -0.27365142 -0.08564303
-0.34765023 0.16692795 -0.466782 -0.032228954 0.01169236 0.20596217 -0.30114526 -0.0354908
-0.021240914 0.0870418 0.018247068 -0.3962153 0.07351905 -0.3954549 0.19595744 0.040175945
-0.01309363 0.064774096 0.09324135 0.20205325 0.018655498 -0.04737851 0.048614196 0.22100054
0.056397516 -0.082937256 0.08626959 0.20459478 -0.008032197 0.09636829 -0.0042837257 -0.024831342
0.20591526 -0.32306582 0.18041025 0.07150179 0.14862151 -0.32787246 -0.37311944 0.026776647
-0.06747798 0.0581867 0.017469622 0.06199329 -0.025906902 -0.42196757 0.014866837 -0.018640881
-0.111569114 0.12178736 0.09267426 -0.061779313 0.03492343 -0.3158659 -0.02373481 -0.10071727
0.10377764 -0.09288403 -0.19965993 -0.050639033 0.057601254 0.04349222 -0.04611827 0.09238494
00000000: cf20 359c be1b 33b8 7670 e3b7 3811 c3a1
00000010: 24e0 bb38 ca93 deb6 812a 769c a849 6fb3
00000020: 609e be36 d2c5 419c 3dee 4336 54c9 bfb7
00000030: c792 9033 e33c ce33 a788 cf1e 820d 0022
00000040: 26bf 48be c862 e1bd 0157 61be e077 5d3e
00000050: 7d57 403e 1bd1 80be f6a6 31be 83c4 543e
00000060: 7c14 863e 5d47 9bbe 147a 313e 7e76 4dbe
00000070: 235e 4b3e 60b2 48be 8bf7 34be 3a29 3e3e
00000080: ba3c 2d3e 7a57 133f c2c1 c83e 92db c7be
00000090: c168 c4be 6b70 b33e 4abe a73e 9766 b5be
000000a0: ffd2 adbe aaf8 1c3f 14ec 6abe 77cc d03e
000000b0: b370 b7be c37a d13e 9b91 fb3e b27c b2be
000000c0: ba14 52be fc99 cfbc 55e4 243e bb39 17be
000000d0: 3242 a6bd 0986 1b3e 032f c03e d05e 36bd
000000e0: 6366 e6bd 4c84 b83d 2933 be3c b8b4 bc3e
000000f0: 0462 1abc 553c bd3d d23e c03d 1097 b2bc
00000100: 2900 26bd 1bc7 ad3d 951b 103e 304f 053d
00000110: a730 d3bb 26a3 393e c66e 7d3e 3505 e43d
00000120: 575c dbbc d94f 4f3d 3c5b 89be b42d 42bd
00000130: 2e08 353e 0a71 393e 0b15 253e 3b0a 903d
00000140: 87df 673d 24bf a9be fa0f 923d f33d 80bc
00000150: 6381 bb3d 952b 033e 72f7 13be dc9b a9ba
00000160: fa22 a43b e660 433e 5b79 9b3d f5ae 0ebd
00000170: 1039 c53d c0b7 963d 0e4c ba3b 3b3f 2cbd
00000180: b561 563e 49e6 6c3e 8e30 d7bc 93a6 293e
00000190: 44f2 283e 8d26 233e 3070 a5bd 398b 52bd
000001a0: 559f 313d 5454 473a 4f4c 2abd f82b 99bc
000001b0: 4b43 0a3d 7d43 9c3d 38aa bd3d 97cc e3bd
000001c0: 9de6 bcbe e31b 253e 2994 c03d 9529 203d
000001d0: 270b 15bd a9eb 62be 1ec7 e93d d724 283e
000001e0: 102c 64bd 5a87 95be cde7 223e 5e18 a9bc
000001f0: d560 6ebd a856 5abb 0760 1abe 20fe 02bd
00000200: 353a 793e 0295 f9be 2026 64be e07f 9dbd
00000210: 5bb8 f23d d88f 2b3d f884 da3d 410d 49bd
00000220: 643a 353d f4f9 0ebe 95ba 413e 4ca9 06bf
00000230: e53d 4b3e 0662 e63d b618 1abd e2db 083e
00000240: 215a b03d b844 1d3e 7e31 ec3d 1ce5 a43d
00000250: 8113 673d 8836 28bd 05fd 123e a25b 40be
00000260: b2bf df3d fb7b 89bd f024 9f3d a028 0f3e
00000270: 530c 043d 7f1d 7bbc 7842 803d f472 153e
00000280: dd7d 80bd 17a3 10be 74bc 63be afb1 bd3c
00000290: f17e 833e 6b79 e3be 12bf e6bd 4cfc 8d3d
000002a0: 9197 0f3e 98a0 2abb 1916 55ba 0251 a0be
000002b0: 48f0 893e d1de 8a3c 2430 553d 55d5 7f3e
000002c0: cbb8 aebe fe31 d2bd 971b 9bbe 29a7 343e
000002d0: 3bbb 09bd 52c8 f33d 603f 8bbe 9bd6 6b3e
000002e0: 6c4a 7b3e a69a c6be 39b0 37bd ec73 1b3d
000002f0: 77f1 b73d c7c5 bb3d 0a1c 8cbe 9d65 afbd
00000300: 36ff b1be 29ef 2a3e 0dfe eebe 8202 04bd
00000310: 5091 3f3c bfe7 523e b62f 9abe cd5e 11bd
00000320: 6d01 aebc f942 b23d e07a 953c bbdc cabe
00000330: 2891 963d 1179 cabe 11a9 483e 888f 243d
00000340: aa86 56bc 48a8 843d 52f5 be3d 0ce7 4e3e
00000350: 6ad3 983c f80f 42bd ae1f 473d f74d 623e
00000360: 1501 673d 02db a9bd 1cae b03d 4b81 513e
00000370: 7a99 03bc bd5c c53d 7f5e 8cbb 196b cbbc
00000380: 73db 523e e268 a5be 77bd 383e 886f 923d
00000390: 3d30 183e e6de a7be 8309 bfbe b35a db3c
000003a0: e531 8abd 2d55 6e3d 741c 8f3c adec 7d3d
000003b0: b63a d4bc 220c d8be 0994 733c c3b4 98bc
000003c0: 597e e4bd a76b f93d 01cc bd3d 4e0c 7dbd
000003d0: df0b 0f3d 2db9 a1be 816f c2bc db44 cebd
000003e0: 5f89 d43d fb39 bebd a773 4cbe e06a 4fbd
000003f0: 4bef 6b3d e624 323d 83e6 3cbd 5134 bd3d

bias f4 [16]
0.011536757 0.02465529 0.057115454 0.12875329 0.09202448 0.049646754 0.045108594 0.04314334
0.118935585 0.08881055 -0.01765058 0.08220344 0.06833659 0.08554303 0.0039017356 0.09583427
00000000: ab04 3d3c e4f9 c93c e5f1 693d e7d7 033e
00000010: 5577 bc3d 655a 4b3d cac3 383d 12b7 303d
00000020: 8094 f33d 4ee2 b53d f397 90bc 475a a83d
00000030: 0ef4 8b3d 2f31 af3d 43b4 7f3b c244 c43d

weight f4 [16, 32]
0.036340404 -0.19363013 -0.05869217 -0.10724854 0.4652675 -0.06817851 -0.103736654 -0.50673175
0.07826559 -0.14484821 -0.13678986 0.20488521 -0.2777161 -0.02724169 0.36112908 -0.17543344
0.019832302 0.012863204 -0.0037370124 0.012875496 0.013101942 0.020180779 0.012416013 0.012985595
0.017438464 0.012980726 0.016003642 0.012985414 0.012918837 0.014960666 0.00037350014 0.014283281
-0.36709258 -0.51113296 -0.044356972 0.40874943 0.36753565 0.08076098 -0.20392007 -0.45933113
0.0044301343 0.0067283367 0.34336847 -0.0022258202 0.1737495 0.08065806 0.42186305 0.012001542
0.018268451 0.018485196 0.018332858 0.018447392 0.01814301 0.014316114 0.018265324 0.01846073
0.012531268 0.029127613 0.010584975 0.0011812897 0.018297361 0.015596754 0.01829985 0.0037438425
-0.43524602 0.13585515 0.06389809 0.26412535 0.20092523 -0.07566137 -0.029114258 -0.06035982
0.119158365 0.36200908 0.43035474 0.10909301 0.17718123 0.12046629 0.39765158 0.02960775
0.03031946 0.025872938 0.026129266 0.026082646 0.02584979 0.025720784 0.025909152 0.026038602
0.030054666 0.025836613 0.019984638 0.026216878 0.026153598 0.025876455 0.025900962 0.025870921
0.0035871721 0.03686104 -0.17922886 -0.38852182 -0.28314346 -0.45119897 0.25528568 0.027525945
-0.0014519988 -0.10201335 -0.4205489 -0.15682828 0.09765807 -0.42231643 -0.3709386 -0.31590492
0.046641856 0.05201744 0.04584893 0.05030343 0.04594948 0.037857804 0.046163514 0.046312764
0.046223722 0.05120615 0.046106152 0.046352413 0.0463851 0.04268291 0.04625688 0.045949627
0.21427236 0.24581249 -0.38803002 0.0045986706 -0.4140143 -0.27186793 -0.14962538 -0.19545363
-0.32841605 0.27480286 0.215609 -0.10532637 0.33891708 -0.036988035 -0.2879763 -0.10071772
0.034584947 0.032401375 0.028159093 0.03522836 0.035545755 0.034237795 0.03557171 0.035815064
0.015771639 0.035422944 0.017569335 0.03561917 0.035621386 0.029450225 0.03567791 0.035453595
-0.2547187 -0.00071344455 0.17009936 0.19803905 0.46079725 0.17178619 0.19712837 -0.3010012
0.4389433 -0.03724391 0.18358962 0.22934018 0.15941992 0.037483253 0.30643728 0.20375481
0.030743312 0.031148879 0.03480686 0.012752236 0.031102343 0.031057004 0.031279497 0.030325316
0.034285426 0.035934377 0.016813397 0.031236356 0.0077265 0.030878214 0.03130518 0.03390927
0.14602722 -0.32978585 0.44370055 0.276966 0.24714676 0.4999235 0.14876068 -0.4055636
0.5598001 0.24592553 0.048401993 -0.1644544 -0.17982905 0.36035347 0.0048551834 0.45046958
0.016801152 0.022712255 0.022729427 0.0052840603 0.022632554 0.022877883 0.022648094 0.028959842
0.022575606 0.02236228 0.022970866 0.0035562112 0.035298515 0.030233469 0.020187534 0.022713386
0.25543663 -0.04894153 -0.07907495 0.07621822 -0.15047775 -0.029948357 0.076917104 0.38075802
-0.046363946 -0.3104963 -0.24972938 0.14879623 -0.16364326 -0.38888055 0.14221853 -0.08634529
0.024097225 0.024013802 0.019633554 0.024176626 0.023940494 0.029030265 0.020935882 0.024154287
0.025412276 0.024137776 0.023938617 0.018764054 0.0243913 0.012557755 0.023986645 0.02397782
00000000: add9 143d fa46 46be 3367 70bd 1fa5 dbbd
00000010: 8b37 ee3e 2da1 8bbd e273 d4bd 2cb9 01bf
00000020: b649 a03d 1753 14be a412 0cbe 6ecd 513e
00000030: ce30 8ebe f729 dfbc e9e5 b83e d3a4 33be
00000040: 5a77 a23c 30c0 523c aae8 74bb bff3 523c
00000050: 87a9 563c 2952 a53c 886c 4b3c 88c1 543c
00000060: 1cdb 8e3c 1cad 543c 121a 833c c6c0 543c
00000070: 88a9 533c 951d 753c 57d2 c339 6c04 6a3c
00000080: 8ff3 bbbe 9cd9 02bf a8af 35bd 9b47 d13e
00000090: a22d bc3e 0366 a53d 6cd0 50be 732d ebbe
000000a0: a92a 913b 6179 dc3b fecd af3e 11df 11bb
000000b0: 64eb 313e 0e30 a53d 6ffe d73e 1ea2 443c
000000c0: b8a7 953c 446e 973c ca2e 963c fc1e 973c
000000d0: a6a0 943c 228e 6a3c 29a1 953c f53a 973c
000000e0: f34f 4d3c 089d ee3c 9a6c 2d3c 81d5 9a3a
000000f0: 59e4 953c 8789 7f3c 91e9 953c 415b 753b
00000100: 91d8 debe 9d1d 0b3e 00dd 823d 703b 873e
00000110: 58bf 4d3e 59f4 9abd 0681 eebc dc3b 77bd
00000120: 4d09 f43d 4159 b93e 7557 dc3e 286c df3d
00000130: ff6e 353e 08b7 f63d fd98 cb3e f48b f23c
00000140: 8460 f83c 7cf3 d33c 0b0d d63c 46ab d53c
00000150: f0c2 d33c 65b4 d23c 6e3f d43c e84e d53c
00000160: 3435 f63c 4ea7 d33c d3b6 a33c c7c4 d63c
00000170: 1240 d63c dcfa d33c 412e d43c 41ef d33c
00000180: c316 6b3b 9afb 163d c587 37be 55ec c6be
00000190: 2ef8 90be 8d03 e7be ceb4 823e 177e e13c
000001a0: ff50 beba 60ec d0bd 2f52 d7be 9897 20be
000001b0: f400 c83d dc39 d8be aaeb bdbe 4abe a1be
000001c0: 880b 3f3d 3d10 553d 16cc 3b3d f80a 4e3d
000001d0: 8635 3c3d c910 1b3d f415 3d3d 74b2 3d3d
000001e0: 1655 3d3d 8abd 513d ced9 3c3d 07dc 3d3d
000001f0: 4dfe 3d3d 46d4 2e3d db77 3d3d ad35 3c3d
00000200: 376a 5b3e 45b6 7b3e dfab c6be 72b0 963b
00000210: aff9 d3be 4632 8bbe 6537 19be ff24 48be
00000220: 2626 a8be f6b2 8c3e 9bc8 5c3e 5ab5 d7bd
00000230: 8a86 ad3e c480 17bd a171 93be 1845 cebd
00000240: f2a8 0d3d 4eb7 043d e6ad e63c 9d4b 103d
00000250: 6d98 113d ee3c 0c3d a4b3 113d d1b2 123d
00000260: 8633 813c a617 113d 91ed 8f3c 68e5 113d
00000270: bbe7 113d 9941 f13c 0023 123d ca37 113d
00000280: 7d6a 82be 7406 3bba 872e 2e3e c0ca 4a3e
00000290: 9eed eb3e b8e8 2f3e 05dc 493e d41c 9abe
000002a0: 2dbd e03e 128d 18bd ebfe 3b3e 27d8 6a3e
000002b0: fa3e 233e 0a88 193d 59e5 9c3e 1aa5 503e
000002c0: 66d9 fb3c ef2b ff3c a391 0e3d c1ee 503c
000002d0: 57ca fe3c 426b fe3c ee1e 003d cc6c f83c
000002e0: e06e 0c3d ed2f 133d 40bc 893c 63e3 ff3c
000002f0: 942e fd3b 4ff4 fc3c dc39 003d 72e4 0a3d
00000300: 2988 153e b1d9 a8be b82c e33e 7dce 8d3e
00000310: 0a14 7d3e f9f5 ff3e b854 183e 08a6 cfbe
00000320: 0f4f 0f3f e7d3 7b3e 2b41 463d bc66 28be
00000330: 1b25 38be 4080 b83e 3b18 9f3b f3a3 e63e
00000340: 92a2 893c 0d0f ba3c 1033 ba3c e925 ad3b
00000350: e867 b93c 666a bb3c 7f88 b93c 313d ed3c
00000360: 7af0 b83c 1a31 b73c 662d bc3c 530f 693b
00000370: 2d95 103d 2eac f73c 5460 a53c 6c11 ba3c
00000380: 97c8 823e ea76 48bd 0cf2 a1bd 4c18 9c3d
00000390: d716 1abe 4256 f5bc b786 9d3d b7f2 c23e
000003a0: 1fe8 3dbd 5ff9 9ebe 0fb9 7fbe 0a5e 183e
000003b0: 1992 27be 5a1b c7be bca1 113e cdd5 b0bd
000003c0: 8b67 c53c 98b8 c43c 8cd6 a03c 0f0e c63c
000003d0: db1e c43c e1d0 ed3c ba81 ab3c 36df c53c
000003e0: 682d d03c 96bc c53c eb1a c43c 13b7 993c
000003f0: 43d0 c73c 0bbf 4d3c a47f c43c 226d c43c

bias f4 [32]
-0.021434614 0.04425322 -0.01735416 -0.033192582 -0.028393436 -0.02756629 0.018800106 0.033323962
0.021088837 -0.0043442408 0.009487625 -0.012256935 0.047515746 -0.020832062 -0.046159245 0.017883299
0.22788121 0.22949529 0.2298925 0.22996865 0.22896537 0.22918974 0.22915076 0.22901662
0.23053434 0.22900647 0.23032306 0.23140173 0.22961104 0.22953852 0.22917727 0.22844036
00000000: a597 afbc dd42 353d 502a 8ebc f2f4 07bd
00000010: 5a99 e8bc b3d2 e1bc ae02 9a3c b57e 083d
00000020: 7fc2 ac3c 225a 8ebb fc71 1b3c 50d1 48bc
00000030: df9f 423d 00a8 aabc 7a11 3dbd ff7f 923c
00000040: b159 693e d000 6b3e f168 6b3e e77c 6b3e
00000050: e675 6a3e b7b0 6a3e 7fa6 6a3e 5583 6a3e
00000060: 3211 6c3e ac80 6a3e cfd9 6b3e 93f4 6c3e
00000070: 281f 6b3e 250c 6b3e 72ad 6a3e 45ec 693e

weight f4 [16, 136]
-0.06270351 -0.0652997 -0.07324628 0.003619476 0.0065172915 0.04666766 0.010665578 -0.00090642535
0.013429034 -0.07295614 -0.08214459 0.017531535 0.047180843 -0.042386446 -0.0691483 -0.036046572
-0.033702854 0.06293135 -0.08296879 -0.0024857365 -0.029317508 0.0696064 0.02777219 -0.06415664
0.04913025 0.03754766 0.063387215 0.059922837 -0.066280074 0.03869612 -0.03827974 0.071395285
0.034499127 -0.07455815 0.07389098 0.015693447 0.0019918194 0.012380981 -0.00084910484 -0.059332594
0.014966256 0.08248891 -0.06635209 -0.017622605 -0.0013914747 -0.048573744 -0.023148412 0.03589743
-0.051214635 0.021989236 0.021144418 -0.009956634 0.07780162 0.0005308649 -0.020290172 0.045488153
0.083896644 0.027634019 0.07557193 -0.043072496 0.006378373 -0.02940806 -0.06017089 -0.03264196
0.04202623 0.055259574 0.058385607 0.07685031 0.059822664 -0.077078894 -0.007707876 -0.0193697
0.066881746 0.0060532177 0.040023945 -0.013440161 -0.05338949 -0.021246547 0.055043936 -0.026980177
-0.08463379 0.058324613 -0.07350743 -0.057312727 0.042348962 0.010368032 0.07410578 -0.04316938
0.037582442 -0.05592323 0.03105908 -0.0783722 -0.064595774 -0.023915188 -0.024594666 -0.06872106
0.07972402 -0.07808307 -0.00917985 0.028937297 -0.05350578 -0.019228213 -0.07794986 0.03760338
-0.030434335 -0.06528102 -0.020093473 -0.068824284 0.02644353 0.06975189 0.04403879 -0.02124441
0.0052751927 -0.012064034 -0.06917071 -0.0052970066 0.040242165 0.081723146 0.05029782 0.06905491
-0.04860405 0.049005203 0.009121466 0.046945296 0.04084255 -0.033389628 -0.0051434143 -0.055291224
-0.07794512 0.06579885 -0.0576327 -0.010185409 0.014105206 0.045153286 -0.0324079 -0.023924593
0.014353368 0.064770974 0.0779334 0.025493825 0.011828997 0.05265411 0.08302037 0.0058794725
0.041471988 0.07749463 -0.0017017619 -0.063903086 0.085103 0.07395788 -0.0838779 0.008376541
0.07921814 -0.08329159 -0.0148156835 0.024863468 0.071575604 -0.063387334 0.023976015 -0.075265065
0.0056361863 0.013552946 0.07457245 0.077953905 -0.020841328 -0.04586288 0.013587425 -0.009783982
-0.0709779 -0.051208552 0.08230591 0.03913798 -0.07584967 0.077788696 0.0051910337 -0.075159594
0.038149208 -0.025265234 0.053578913 0.07777228 -0.033187732 0.01407546 -0.06098666 0.07958634
-0.06703833 -0.06552685 -0.023657616 -0.07757354 0.054727122 0.0010779115 -0.047908373 0.058740847
0.03521823 -0.07688762 -0.002839396 -0.0105707375 -0.00900655 -0.029933972 0.0018249946 0.068317674
0.07990806 0.072400436 -0.08167868 0.056211546 0.015321004 -0.07782618 0.019994257 0.030529676
0.048550934 -0.05937569 0.039598692 0.012867779 -0.06532543 0.018504415 0.051086344 -0.07089931
-0.060994018 0.023542311 -0.07305249 -0.056473523 -0.045582555 -0.0754656 -0.030079285 -0.020591438
0.034594357 -0.06930513 0.018465275 0.036668517 -0.084547006 0.03197547 0.01733897 0.08024803
0.019712761 0.05564826 0.069898896 0.06342311 -0.0407386 0.03510537 -0.012690716 -0.012039456
0.068863854 -0.048662066 0.022042144 -0.011055245 -0.0121472115 -0.0644668 0.05080174 -0.04814133
-0.07544122 -0.07656061 -0.07502428 0.050989173 0.002347457 9.694651e-05 -0.054353535 -0.028269742
00000000: b36a 80bd d9bb 85bd 2502 96bd bb34 6d3b
00000010: 018f d53b 9726 3f3d adbe 2e3c 2d9d 6dba
00000020: 7305 5c3c 076a 95bd 6c3b a8bd 4b9e 8f3c
00000030: b340 413d 699d 2dbd a09d 8dbd 92a5 13bd
00000040: 010c 0abd 27e2 803d 8aeb a9bd bde7 22bb
00000050: 452b f0bc cd8d 8e3d 8182 e33c 8e64 83bd
00000060: cd3c 493d 93cb 193d 28d1 813d a671 753d
00000070: d9bd 87bd d37f 1e3d 37cb 1cbd b137 923d
00000080: f54e 0d3d f1b1 98bd 2754 973d 8b8f 803c
00000090: 2f89 023b 99d9 4a3c 7696 5eba bc06 73bd
000000a0: 0735 753c f2ef a83d 9be3 87bd 485d 90bc
000000b0: 2562 b6ba 43f5 46bd bda1 bdbc 2f09 133d
000000c0: 70c6 51bd c522 b43c 0f37 ad3c 2621 23bc
000000d0: 7556 9f3d be29 0b3a 9337 a6bc c951 3a3d
000000e0: 01d2 ab3d bd60 e23c 75c5 9a3d c96c 30bd
000000f0: ac01 d13b 2ce9 f0bc c075 76bd 93b3 05bd
00000100: b223 2c3d dd57 623d bf25 6f3d b263 9d3d
00000110: 9c08 753d 8adb 9dbd 5a92 fcbb 35ad 9ebc
00000120: 4cf9 883d 125a c63b 26f0 233d 1f34 5cbc
00000130: f0ae 5abd 3d0d aebc c075 613d 8805 ddbc
00000140: 7b54 adbd cae5 6e3d 108b 96bd c0c0 6abd
00000150: 1b76 2d3d aede 293c c5c4 973d 60d2 30bd
00000160: 0cf0 193d c20f 65bd 9d6f fe3c 9b81 a0bd
00000170: ca4a 84bd c9e9 c3bc c17a c9bc a1bd 8cbd
00000180: 5946 a33d 04ea 9fbd 1567 16bc e90d ed3c
00000190: e028 5bbd 7c84 9dbc 2da4 9fbd 0006 1a3d
000001a0: 6d51 f9bc 0eb2 85bd 119b a4bc bff3 8cbd
000001b0: 1aa0 d83c 14da 8e3d 0562 343d c208 aebc
000001c0: 86db ac3b 3aa8 45bc 60a9 8dbd 8392 adbb
000001d0: f8d4 243d 775e a73d 1605 4e3d a96c 8d3d
000001e0: 0a15 47bd aeb9 483d 3472 153c b649 403d
000001f0: 854a 273d 90c3 08bd 168a a8bb 0d79 62bd
00000200: b1a1 9fbd 8cc1 863d 4410 6cbd b4e0 26bc
00000210: 8619 673c a7f2 383d 25be 04bd 82fd c3bc
00000220: 642a 6b3c a5a6 843d 8c9b 9f3d 6dd8 d03c
00000230: 69ce 413c d6ab 573d 9506 aa3d 97a8 c03b
00000240: 88de 293d 81b5 9e3d a70d dfba 9fdf 82bd
00000250: 7b4a ae3d 3b77 973d 2dc8 abbd c23d 093c
00000260: 1f3d a23d c894 aabd 7bbd 72bc 79ae cb3c
00000270: 3b96 923d 38d1 81bd 5969 c43c 9224 9abd
00000280: c2af b83b 2d0d 5e3c 71b9 983d 4ca6 9f3d
00000290: 6fbb aabc b7da 3bbd cb9d 5e3c ff4c 20bc
000002a0: dc5c 91bd 0fc0 51bd 0090 a83d 264f 203d
000002b0: 1257 9bbd ae4f 9f3d 8c19 aa3b 46ed 99bd
000002c0: 5842 1c3d 09f9 cebc 9075 5b3d 1347 9f3d
000002d0: dcef 07bd c29c 663c 26cd 79bd 2afe a23d
000002e0: 644b 89bd f132 86bd 9ecd c1bc e0de 9ebd
000002f0: 8c29 603d b548 8d3a 923b 44bd 3e9a 703d
00000300: fe40 103d 4277 9dbd 2915 3abb e330 2dbc
00000310: 3590 13bc 1738 f5bc a834 ef3a 23ea 8b3d
00000320: d6a6 a33d ae46 943d 2747 a7bd 143e 663d
00000330: f304 7b3c 5563 9fbd ffca a33c 5f19 fa3c
00000340: 58dd 463d ec33 73bd 3d32 223d 60d3 523c
00000350: 57c9 85bd 9296 973c ea3f 513d a833 91bd
00000360: ddd4 79bd cedb c03c 8b9c 95bd c850 67bd
00000370: c6b4 3abd b58d 9abd d568 f6bc 60af a8bc
00000380: d0b2 0d3d d9ef 8dbd 7d44 973c ba31 163d
00000390: fb26 adbd b6f8 023d 750a 8e3c 1459 a43d
000003a0: a87c a13c 6eef 633d 2727 8f3d fae3 813d
000003b0: 85dd 26bd a6ca 0f3d b9ec 4fbc 2341 45bc
000003c0: 7e08 8d3d e051 47bd ba91 b43c 0f21 35bc
000003d0: 1905 47bc 2b07 84bd 7c15 503d d82f 45bd
000003e0: ed80 9abd cfcb 9cbd 54a6 99bd 06da 503d
000003f0: cbd7 193b c34f cb38 d0a1 5ebd f295 e7bc

bias f4 [16]
0.064212844 0.05524522 -0.047854014 -0.037892744 -0.050962828 0.063009486 -0.014721922 -0.0313157
-0.08310309 0.033792403 0.05128596 0.06882252 -0.073632464 -0.009307739 0.036595315 0.023867099
00000000: 0682 833d d048 623d 9202 44bd 6c35 1bbd
00000010: 66be 50bd 1e0b 813d 3734 71bc e444 00bd
00000020: f431 aabd e769 0a3d 3a11 523d d2f2 8c3d
00000030: 9ecc 96bd 7d7f 18bc f8e4 153d ef84 c33c

weight f4 [16, 16]
0.12999675 -0.24473992 0.24674335 -0.093533084 -0.08010054 -0.23517579 -0.060606644 -0.033173114
-0.13761139 -0.14775282 0.121744365 -0.11839336 -0.09288879 0.20754546 0.18345314 -0.031460166
-0.03872022 0.11502427 0.20725226 0.022312194 0.14850047 0.07516301 0.18198967 0.13922882
-0.15214275 0.20865607 -0.20469552 -0.1805892 0.10214257 -0.03723146 -0.018465593 0.080221504
-0.24946888 0.037148327 -0.08221266 0.15128356 0.12980613 -0.23099901 0.11019462 -0.1285393
0.2132515 0.113211274 0.051062495 -0.098598376 -0.005670145 0.051623702 -0.19071512 0.18095246
-0.11596194 -0.115722895 -0.063256666 0.08043361 0.19975644 0.02346009 -0.08917737 -0.11553733
-0.2441298 -0.23838538 0.07530835 0.0068752766 0.048411697 -0.15733692 -0.020693764 -0.06495021
-0.15723205 0.1877167 0.13512269 -0.004731387 0.124667674 -0.10238309 0.14852092 -0.06339264
-0.08550018 -0.16585594 -0.08576931 -0.058350667 0.11974841 0.030462772 -0.14384596 0.22545516
0.097783685 -0.016029567 0.13359037 -0.19535215 -0.1900284 -0.23429255 0.17002934 0.13304439
0.03924337 -0.19809376 0.03805369 0.11520317 0.20433375 -0.13959827 0.14696702 0.043552965
0.18406886 -0.131473 0.067511976 0.20833963 0.1944966 0.1901091 0.23126987 0.23831221
0.1894789 -0.1685737 -0.05667083 0.055121362 0.14283645 0.15096119 -0.117406994 -0.025831252
0.014608532 -0.0020889193 0.07006258 0.056542367 -0.17195198 -0.22480461 -0.1899671 0.23609981
-0.055675164 0.08156416 -0.02965413 -0.033421844 -0.17816335 0.23383212 0.24050906 -0.24972457
0.17859626 0.035661966 -0.22283128 -0.14499496 -0.12666443 0.21709862 -0.01758489 0.06683639
-0.24203715 0.23237815 -0.12317991 -0.21786574 0.16639653 0.10621309 -0.17178315 0.16958481
0.14485052 -0.14700961 -0.1800964 0.022452056 0.045075744 -0.11252497 -0.18539181 -0.16926256
0.20938209 -0.21761411 -0.2437527 -0.10412517 -0.06492637 0.172133 0.13579091 -0.11805865
-0.24384986 -0.21065187 0.033454895 0.20194373 0.23855937 -0.15882307 0.05208379 0.13868916
0.010018647 0.009429932 -0.24846102 0.138857 -0.16598523 0.15216005 0.21239227 0.07020444
0.13758853 0.15201363 0.046703696 0.19551104 0.15561217 0.19994164 0.17958838 0.11554158
0.22859368 0.022108793 0.18186072 -0.19589432 -0.011103347 0.12060806 0.20640945 0.19637987
-0.15745744 -0.2228401 0.08633232 0.12851715 -0.046052366 -0.1816098 0.17205796 0.025658458
-0.23114964 -0.092648774 -0.057373837 0.19848868 -0.14715423 -0.06306666 0.15950823 0.0039003193
0.15361449 0.16751531 0.09395015 -0.050407216 0.0888581 0.05917579 0.21170244 -0.020452887
-0.17959493 0.1382522 0.0982303 0.06403035 -0.22969818 -0.20943365 0.10281846 0.080654025
-0.22853678 0.14736652 -0.09321998 -0.23812151 -0.022263944 -0.121751964 -0.22025657 -0.10026449
-0.24688107 -0.007152155 -0.24109289 0.11030927 0.17514509 -0.041071683 0.12105614 0.12328002
0.09048095 -0.003313765 -0.14708665 0.09614098 0.18076923 -0.14702384 0.19331023 -0.24847418
0.24555016 -0.122949496 0.0786885 -0.06881216 0.24013415 0.22474957 0.15495303 -0.029002145
00000000: de1d 053e 1a9d 7abe 4aaa 7c3e 468e bfbd
00000010: c00b a4bd ecd1 70be ac3e 78bd 88e0 07bd
00000020: 00ea 0cbe 844c 17be 1c55 f93d 3878 f2bd
00000030: 7a3c bebd cc86 543e 24db 3b3e 60dc 00bd
00000040: 1899 1ebd d891 eb3d f039 543e 10c8 b63c
00000050: 8210 183e 10ef 993d 805b 3a3e 0092 0e3e
00000060: 4fcb 1bbe f0a9 553e b49b 51be 60ec 38be
00000070: 2030 d13d 0480 18bd 2845 97bc 2c4b a43d
00000080: c574 7fbe d828 183d 1c5f a8bd 14ea 1a3e
00000090: e6eb 043e 018b 6cbe b8ad e13d ce9f 03be
000000a0: 9a5e 5a3e 50db e73d e826 513d f2ed c9bd
000000b0: a0cc b9bb 6073 533d d34a 43be 9a4b 393e
000000c0: 747d edbd 2000 edbd b68c 81bd 60ba a43d
000000d0: f48c 4c3e 602f c03c a0a2 b6bd d69e ecbd
000000e0: 2afd 79be 4c1b 74be 443b 9a3d 004a e13b
000000f0: 584b 463d ee1c 21be f885 a9bc 9e04 85bd
00000100: 7001 21be ce38 403e 9a5d 0a3e c009 9bbb
00000110: c451 ff3d 3aae d1bd de15 183e 00d4 81bd
00000120: b81a afbd 24d6 29be d2a7 afbd 1c01 6fbd
00000130: a83e f53d 108d f93c 5b4c 13be b8dd 663e
00000140: d042 c83d 7050 83bc eacb 083e 650a 48be
00000150: ce96 42be 63ea 6fbe 2c1c 2e3e ca3c 083e
00000160: a8bd 203d 17d9 4abe 30de 1b3d a4ef eb3d
00000170: de3c 513e d9f2 0ebe 867e 163e 9864 323d
00000180: 8c7c 3c3e dca0 06be b843 8a3d fc56 553e
00000190: 1e2a 473e f6ab 423e 02d2 6c3e 1e08 743e
000001a0: c206 423e 969e 2cbe ac1f 68bd f0c6 613d
000001b0: b843 123e 9295 1a3e 1473 f0bd 109c d3bc
000001c0: a058 6f3c 40e6 08bb f87c 8f3d f898 673d
000001d0: 2e14 30be 2e33 66be bc86 42be 26c4 713e
000001e0: a40b 64bd 1c0b a73d 38ed f2bc 58e5 08bd
000001f0: 7470 36be b071 6f3e 0248 763e ccb7 7fbe
00000200: f0e1 363e 4812 123d e22d 64be 8f79 14be
00000210: 52b4 01be 1a4f 5e3e 300e 90bc 84e1 883d
00000220: 96d8 77be 8af4 6d3e c045 fcbd 3218 5fbe
00000230: da63 2a3e 4086 d93d ece7 2fbe a4a7 2d3e
00000240: b253 143e b089 16be 316b 38be 60ed b73c
00000250: 58a1 383d 7e73 e6bd 5ad7 3dbe 2a53 2dbe
00000260: 4268 563e 3cd6 5ebe 4f9a 79be 943f d5bd
00000270: 1ef8 84bd a243 303e c60c 0b3e bcc8 f1bd
00000280: c7b3 79be 20b5 57be 0008 093d 56ca 4e3e
00000290: e848 743e 84a2 22be d055 553d 8804 0e3e
000002a0: 4025 243c 0080 1a3c 916c 7ebe 8830 0e3e
000002b0: 08f8 29be d8cf 1b3e 5c7d 593e 58c7 8f3d
000002c0: 02e4 0c3e 76a9 1b3e 604c 3f3d 0c34 483e
000002d0: cc58 1f3e 80bd 4c3e 04e6 373e 10a1 ec3d
000002e0: 7614 6a3e 801d b53c b239 3a3e 8598 48be
000002f0: d0ea 35bc 5c01 f73d 005d 533e ce17 493e
00000300: 863c 21be 3230 64be 00cf b03d 009a 033e
00000310: 68a1 3cbd ebf7 39be f62f 303e b031 d23c
00000320: 7eb2 6cbe a4be bdbd d400 6bbd 9e40 4b3e
00000330: 99af 16be 1829 81bd 2056 233e 809c 7f3b
00000340: 1e4d 1d3e 2289 2b3e f068 c03d cc77 4ebd
00000350: 3cfb b53d 5062 723d 86c8 583e d08c a7bc
00000360: bce7 37be fc91 0d3e f82c c93d 5822 833d
00000370: 0036 6bbe c675 56be 7c92 d23d f02d a53d
00000380: 8c05 6abe 40e7 163e 1eea bebd 20d6 73be
00000390: e062 b6bc 1859 f9bd f08a 61be 7857 cdbd
000003a0: 64ce 7cbe a05c eabb 0ee1 76be d4e9 e13d
000003b0: 3c59 333e c83a 28bd 48ec f73d 3c7a fc3d
000003c0: 144e b93d c02b 59bb e29d 16be 90e5 c43d
000003d0: 921b 393e 6b8d 16be 1ef3 453e 0470 7ebe
000003e0: 8071 7b3e f2cc fbbd 7027 a13d 64ed 8cbd
000003f0: bae5 753e c024 663e 02ac 1e3e e895 edbc

bias f4 [16]
-0.04933454 0.21389905 -0.17729616 0.038448393 -0.1899009 -0.12582454 0.044176042 -0.10088238
-0.22993748 0.07213819 -0.15053245 0.23822722 0.09785497 -0.049516663 0.18555039 0.0872933
00000000: 0413 4abd 5a08 5b3e 208d 35be 107c 1d3d
00000010: 6275 42be 26d8 00be f0f1 343d 6c9b cebd
00000020: bb74 6bbe 30bd 933d 2e25 1abe d6f1 733e
00000030: 3068 c83d fcd1 4abd ec00 3e3e d4c6 b23d

weight f4 [16, 16]
0.037909146 0.060073067 -0.04115785 -0.0069405525 -0.07509155 -0.04783662 0.0433287 0.050909728
-0.041735053 -0.038121793 -0.0383072 -0.058549605 0.038651757 -0.062243093 -0.09358314 -0.053852946
2.7896985e-07 -2.758928e-05 7.01333e-05 -1.7399228e-12 2.4422827e-21 -1.0908957e-19 3.740712e-13 2.0003864e-17
-3.9835754e-17 1.1286467e-21 1.9438626e-06 4.7493144e-05 0.00028497068 -2.3571153e-20 -8.422982e-20 2.7737799e-05
0.043859668 0.21785416 0.03296854 0.10265333 -0.30491212 -0.36084205 0.33448285 0.46634707
-0.056314085 -0.054690983 -0.25541148 -0.030777127 0.23817363 -0.4104532 -0.39005393 0.025540994
-0.093473166 -0.22376417 0.21430735 0.42241538 0.14490919 0.4361923 -0.11791606 -0.34258333
0.37493128 0.11970769 0.2990847 0.123729065 -0.0063873874 0.3901968 0.1812845 0.14664471
0.27230376 0.33843938 -0.0997151 -0.034895904 -0.3596997 -0.013235635 -0.033269454 0.37653553
-0.117130935 0.15095784 -0.22139113 -0.3316645 0.047239948 -0.29036415 -0.098087214 -0.08692501
0.048508327 -0.07604264 -0.06983969 -0.02402743 -0.01387849 0.12695086 0.085170425 0.11341332
-0.0438084 0.07567678 0.013812171 -0.091423094 -0.075056866 0.08627929 0.06673775 0.024357095
0.3055227 0.36631837 -0.27841738 -0.18360396 -0.17549191 0.10098665 0.14655022 0.4360787
-0.0120921815 -0.35898897 -0.21924423 -0.23628905 0.086867705 -0.175266 -0.23005831 -0.056856327
-0.17776151 -0.017262004 0.46043268 -0.06824805 0.48397675 0.50790346 0.11446581 -0.011093056
0.46951085 0.027959894 0.42283145 0.14345393 -0.1479337 0.38049388 -0.01868867 0.3842048
-0.0025790038 0.19546467 -0.06334397 -0.06276461 -0.38505855 -0.31715783 0.038018342 0.26947793
-0.24452572 -0.0075479783 0.039031662 -0.028599625 0.091266364 -0.13014981 -0.386294 -0.08331163
0.3247045 0.06896693 -0.010799976 -0.18904617 -0.31964445 -0.11039099 -0.07278493 0.31359386
-0.19783111 -0.089880124 -0.041109033 -0.24155717 0.25324216 -0.2684702 -0.03854086 -0.21640831
0.05927088 0.33586723 0.10493295 -0.063316695 -0.42895812 -0.1316317 0.17023936 0.36494297
-0.00673934 -0.2592385 -0.13768499 -0.19896398 0.021254513 -0.24111284 -0.3208988 -0.11581209
0.0016882905 1.0773306e-05 0.0038461832 -0.001733742 -0.0011326418 -0.00027745133 7.659863e-05 1.7979766e-05
-0.0010431524 -4.7806523e-05 -4.6257883e-05 0.0034046185 -4.524985e-05 -0.0022554025 -1.0061082e-07 -0.00031418717
0.32144305 0.3223626 0.09907446 -0.13828424 -0.090581335 -0.05855406 0.2972127 0.3752325
-0.2603305 -0.2100059 -0.04295443 -0.31433925 -0.026747694 -0.18781099 -0.40678304 -0.18451072
0.006023875 -0.03181755 -0.0129826255 -0.028109463 -0.42454374 -0.074971944 0.27360058 0.38234687
-0.36989927 -0.33666694 0.12952259 -0.07698983 -0.10533205 -0.27364618 -0.4355537 0.07264098
-0.3023127 -0.22844072 0.16464159 0.1641131 0.54334843 0.3570298 0.20480806 -0.25312138
0.4550687 0.33887634 0.19155326 0.49250284 0.19760197 0.36521807 0.14651734 0.4010285
0.011585398 0.18540062 -0.15742879 0.059708305 -0.34166846 -0.052560195 0.22620335 0.31598288
-0.4049809 0.035000402 -0.28288615 -0.36936405 0.15945984 -0.10711277 -0.28076595 -0.11326491
00000000: 9f46 1b3d 2d0f 763d 2295 28bd 936d e3bb
00000010: 99c9 99bd 55f0 43bd 6f79 313d b886 503d
00000020: 60f2 2abd 9925 1cbd 03e8 1cbd b6d1 6fbd
00000030: 4e51 1e3d 9df2 7ebd 84a8 bfbd e894 5cbd
00000040: 53c5 9534 876f e7b7 8714 9338 53df f4ab
00000050: 9e88 381d 4dca 00a0 5795 d22a ca80 b823
00000060: c2b5 37a4 688e aa1c 4e73 0236 6033 4738
00000070: 1e68 9539 8d9f de9e cde1 c69f 78ae e837
00000080: 32a6 333d 2915 5f3e 050a 073d e93b d23d
00000090: 711d 9cbe 4ac0 b8be 5641 ab3e 0bc5 ee3e
000000a0: 99a9 66bd a703 60bd 4bc5 82be 5020 fcbc
000000b0: cae3 733e ec26 d2be 26b5 c7be 593b d13c
000000c0: dc6e bfbd 6f22 65be 6373 5b3e d446 d83e
000000d0: 1363 143e 9954 df3e fa7d f1bd 1567 afbe
000000e0: fef6 bf3e 4e29 f53d a121 993e aa65 fd3d
000000f0: 4a4d d1bb e0c7 c73e a5a2 393e 082a 163e
00000100: 666b 8b3e ed47 ad3e 6e37 ccbd 02ef 0ebd
00000110: 8f2a b8be 47da 58bc 8d45 08bd 44c9 c03e
00000120: 58e2 efbd b194 1a3e 5bb4 62be eecf a9be
00000130: ad7e 413d 9caa 94be f3e1 c8bd bd05 b2bd
00000140: abb0 463d 3ebc 9bbd 1d08 8fbd 2cd5 c4bc
00000150: 9b62 63bc 68ff 013e d56d ae3d 3e45 e83d
00000160: 7070 33bd 6dfc 9a3d 724c 623c 083c bbbd
00000170: 6ab7 99bd 32b3 b03d cdad 883d 8888 c73c
00000180: 796d 9c3e 158e bb3e b98c 8ebe ad02 3cbe
00000190: 27b4 33be 17d2 ce3d 4311 163e b545 df3e
000001a0: 491e 46bc 67cd b7be 8f81 60be c2f5 71be
000001b0: b2e7 b13d ee78 33be 6894 6bbe 2ee2 68bd
000001c0: 1d07 36be 0c69 8dbc d5bd eb3e a2c5 8bbd
000001d0: cdcb f73e f605 023f 0d6d ea3d a6bf 35bc
000001e0: ba63 f03e 260c e53c 5d7d d83e 96e5 123e
000001f0: ef7b 17be 18d0 c23e fb18 99bc 7eb6 c43e
00000200: 8104 29bb e427 483e 7cba 81bd bb8a 80bd
00000210: 6526 c5be 8362 a2be 1fb9 1b3d 03f9 893e
00000220: f364 7abe 0855 f7bb aadf 1f3d c349 eabc
00000230: dce9 ba3d fe45 05be 54c8 c5be 4a9f aabd
00000240: ab3f a63e 893e 8d3d 62f2 30bc 5295 41be
00000250: 70a8 a3be ac14 e2bd 4410 95bd 608f a03e
00000260: 3d94 4abe 1213 b8bd f261 28bd c35a 77be
00000270: f5a8 813e ed74 89be 05dd 1dbd 249a 5dbe
00000280: 06c6 723d caf6 ab3e 16e7 d63d 2fac 81bd
00000290: 66a0 dbbe 76ca 06be 3a53 2e3e ced9 ba3e
000002a0: aed5 dcbb e9ba 84be 4bfd 0cbe 37bd 4bbe
000002b0: f21d ae3c 49e6 76be d94c a4be e42e edbd
000002c0: a149 dd3a ffbe 3437 3f10 7c3b ba3e e3ba
000002d0: 2775 94ba e376 91b9 94a3 a038 41d3 9637
000002e0: 63ba 88ba dd83 48b8 0605 42b8 0520 5f3b
000002f0: a8ca 3db8 60cf 13bb 620f d8b3 7db9 a4b9
00000300: 2f94 a43e b60c a53e 8de7 ca3d 629a 0dbe
00000310: b582 b9bd 62d6 6fbd 432c 983e 791e c03e
00000320: 0a4a 85be c90b 57be fcf0 2fbd 13f1 a0be
00000330: fb1d dbbc 8651 40be de45 d0be 61f0 3cbe
00000340: ed63 c53b 1f53 02bd 14b5 54bc d145 e6bc
00000350: cc5d d9be e48a 99bd 6015 8c3e f8c2 c33e
00000360: 7063 bdbe 9c5f acbe 92a1 043e d8ac 9dbd
00000370: 54b8 d7bd 5a1b 8cbe e500 dfbe cbc4 943d
00000380: bbc8 9abe 5dec 69be ce97 283e 440d 283e
00000390: e218 0b3f 9ccc b63e 34b9 513e 2099 81be
000003a0: c4fe e83e 3381 ad3e 8a26 443e 5529 fc3e
000003b0: 2c58 4a3e ddfd ba3e a408 163e 9c53 cd3e
000003c0: aed0 3d3c a9d9 3d3e 0335 21be b290 743d
000003d0: 2bef aebe 5c49 57bd daa1 673e 82c8 a13e
000003e0: a859 cfbe 955c 0f3d 74d6 90be 491d bdbe
000003f0: 7149 233e f15d dbbd 8ec0 8fbe 6ff7 e7bd

bias f4 [16]
0.027543543 -0.0011683933 0.012288441 0.10698298 0.11677334 -0.035348747 0.14301157 0.074515566
0.085334636 0.22577706 0.082051896 -0.013873581 0.12714368 0.11444966 0.023225762 0.09452711
00000000: ffa2 e13c c624 99ba 7555 493c e519 db3d
00000010: dc26 ef3d d9c9 10bd a071 123e 9e9b 983d
00000020: edc3 ae3d 1a32 673e d30a a83d 044e 63bc
00000030: f431 023e 9564 ea3d f443 be3c 6e97 c13d

weight f4 [2, 16]
0.06152474 2.50003e-13 0.14691316 -0.26202527 0.34078076 -0.015504908 0.13262971 -0.32150987
0.3207308 0.23161303 0.063783266 5.5127347e-11 0.1994228 0.33804548 -0.33308336 0.07349415
-0.06062357 -1.944656e-23 -0.24478388 0.36928576 -0.23766991 0.028209686 -0.2803811 0.4428555
-0.2623191 -0.070621036 -0.38040084 -0.00024469165 -0.26727715 -0.16331257 0.27882177 -0.3335107
00000000: 5e01 7c3d 3bbd 8c2a 6770 163e 2d28 86be
00000010: d17a ae3e 4c08 7ebc 15d0 073e f19c a4be
00000020: d436 a43e f72b 6d3e cda0 823d e073 722e
00000030: 7e35 4c3e 4c14 ad3e e789 aabe 1a84 963d
00000040: 6c50 78bd 5a13 bc99 a0a8 7abe 0613 bd3e
00000050: be5f 73be 0018 e73c 1d8e 8fbe f5bd e23e
00000060: b04e 86be c3a1 90bd e6c3 c2be f549 80b9
00000070: 8dd8 88be 693b 27be bac1 8e3e eac1 aabe

bias f4 [2]
-0.21185595 0.12291664
00000000: c4f0 58be b8bb fb3d
