results/REDDIT-BINARY_GCN.pth (torch, 13467 bytes, 12 tensors)

weight f4 [1, 16]
1.1381094 -3.1147615e-10 -0.0059117214 -0.475509 -0.9971528 -0.3141478 -0.014541536 9.261e-41
-0.07349094 -2.0725636e-11 -3.5804767e-14 1.3864471 -0.020649187 -2.5612257e-05 -1.8164629 1.7020255
00000000: 92ad 913f 5f3c abaf 1db7 c1bb ea75 f3be
00000010: 6845 7fbf fbd7 a0be 9f3f 6ebc 2902 0100
00000020: 6b82 96bd fc4d b6ad 1640 21a9 1977 b13f
00000030: 7c28 a9bc e7d9 d6b7 db81 e8bf f9db d93f

bias f4 [16]
-0.03267837 -0.008929407 -0.1321198 0.22733065 0.180004 0.15583439 -0.14167702 -0.00026912394
-0.210261 -0.00662569 -0.0024328048 -0.71839994 -0.14924322 -0.00060699065 -0.028074522 0.023179175
00000000: c1d9 05bd a64c 12bc 6a4a 07be 5ec9 683e
00000010: f852 383e 0d93 1f3e c813 11be 3419 8db9
00000020: a94e 57be 511c d9bb b16f 1fbb 0fe9 37bf
00000030: 37d3 18be 741e 1fba 8afc e5bc 41e2 bd3c

weight f4 [16, 32]
0.12848322 0.37764025 -0.93955034 0.74777085 -0.20174444 0.23335128 0.5548163 -0.5165227
-0.8917721 0.46844855 0.1825309 -0.19978264 0.19704571 -0.8193882 0.07865791 0.36323044
0.34091485 0.34029692 0.34024885 0.34047255 0.34048092 0.339824 0.3405892 0.3404975
0.34073293 0.34059992 0.34097946 0.3413919 0.34070334 0.34024096 0.3410728 0.3415425
-3.326527e-31 -2.9622555e-30 -1.20314e-40 -9.4485335e-29 -2.884753e-19 -4.4934574e-24 -1.781082e-18 9.109875e-14
1.9711788e-31 -2.8457462e-25 3.0636742e-33 8.9706e-41 -6.4644796e-22 -2.675e-42 -6.058964e-22 -3.3054e-41
1.21896e-40 -1.84069e-40 -1.74153e-40 -6.0151e-41 3.8906e-41 -2.4685e-40 -1.95386e-40 -5.9105e-41
-1.48201e-40 -1.93082e-40 1.28803e-40 -2.38504e-40 -1.82565e-40 -9.1442e-41 1.79483e-40 2.30118e-40
-0.073060684 -0.020109037 0.03211703 -0.048908886 -0.0004193034 -0.05101277 0.010064113 0.012297864
0.018812481 -0.008975568 -0.008622722 0.012129997 0.004738985 -0.0021232495 0.0054253307 -0.0031003882
2.57e-42 8.9148e-41 1.00919e-40 1.17994e-40 -6.9744e-41 -1.18988e-40 1.47094e-40 5.7116e-41
-2.34736e-40 -2.514e-40 -6.865e-42 4.1048e-41 -9.8096e-41 1.27782e-40 1.6426e-40 1.12893e-40
0.22451848 0.12881279 -0.08812671 0.34890237 0.42055696 0.35621572 0.46538895 -0.1882776
-0.30485982 0.3306094 -0.5692908 0.5808874 -0.08247985 -0.3432274 0.32016543 -0.8275942
0.97408813 0.9751246 0.97209334 0.9759598 0.97442114 0.9740872 0.974752 0.9759834
0.9752508 0.9758687 0.9747019 0.9776228 0.97469985 0.9738204 0.9769695 0.9760999
0.5459166 0.32726836 -0.2787082 0.09634132 0.6520021 0.48295546 0.23243003 0.09253004
0.21472603 0.06863767 -0.3385963 0.48798937 -0.16218403 0.11276659 0.25394344 -0.68772346
0.85118204 0.85217315 0.84918207 0.8527842 0.85171777 0.85102326 0.85204035 0.85289824
0.8520143 0.8528044 0.8518719 0.8543566 0.8517739 0.85099375 0.8537995 0.85295486
0.13308074 0.24273865 -0.065040424 0.08749022 0.4342336 0.010182537 0.11359406 -0.23819762
0.14964114 0.021342937 -0.4838725 0.40765953 0.32296246 -0.10768376 -0.038841583 -0.23529235
0.66392076 0.66485304 0.66259056 0.6656018 0.664555 0.664344 0.6647756 0.66565806
0.66489977 0.6653836 0.6646744 0.66655403 0.6648637 0.66411656 0.6663311 0.6656463
0.018151727 0.0012614728 -0.010165804 0.0069289026 0.00044676015 0.018284038 0.001518434 -0.0020146004
-0.0057464875 -0.0134049 -0.0013839761 1.4697567e-06 0.00087104295 -0.003434042 4.3907687e-05 -2.9705312e-09
3.3225e-41 -1.66911e-40 1.06883e-40 2.04825e-40 1.71261e-40 -1.05296e-40 -2.78724e-40 1.3593e-40
-2.19321e-40 -2.05426e-40 2.13241e-40 3.817e-41 1.24138e-40 -1.88058e-40 2.31095e-40 1.56326e-40
1.71565e-40 2.925e-41 3.9323e-41 1.74909e-40 -1.4417e-41 1.57192e-40 -5.1359e-41 1.06857e-40
1.13959e-40 -2.98217e-40 2.5424e-41 1.46391e-40 9.0772e-41 -4.4434e-41 1.6289e-41 -7.6325e-41
6.43e-41 2.13149e-40 -3.22017e-40 -8.3237e-41 -2.2691e-40 -1.19741e-40 -2.79894e-40 2.36657e-40
1.32816e-40 4.9476e-40 2.44371e-40 4.7639e-41 -5.332e-40 2.84591e-40 1.60297e-40 -8.5294e-41
00000000: 1b91 033e 105a c13e 5f86 70bf e96d 3f3f
00000010: 1896 4ebe a3f3 6e3e 7108 0e3f d53a 04bf
00000020: 2d4b 64bf 7dd8 ef3e 61e9 3a3e d293 4cbe
00000030: 5ac6 493e 6dc3 51bf 6617 a13d 57f9 b93e
00000040: 648c ae3e 663b ae3e 1935 ae3e 6b52 ae3e
00000050: 8453 ae3e 69fd ad3e b561 ae3e b055 ae3e
00000060: 8c74 ae3e 1d63 ae3e dc94 ae3e ebca ae3e
00000070: ab70 ae3e 1034 ae3e 18a1 ae3e a9de ae3e
00000080: 69e7 d78c a453 708e 634f 0180 7d8c ef90
00000090: 2849 aaa0 0cd5 ad98 b06b 03a2 db22 cd29
000000a0: a7df 7f0c a624 b096 2585 7e09 10fa 0000
000000b0: 7d60 439c 7507 0080 f71e 379c 245c 0080
000000c0: cc53 0100 1c01 0280 78e5 0180 ada7 0080
000000d0: 746c 0000 1eb0 0280 a820 0280 c3a4 0080
000000e0: 209d 0180 3c1a 0280 0d67 0100 da98 0280
000000f0: ebfc 0180 e7fe 0080 53f4 0100 7a81 0200
00000100: d7a0 95bd b5bb a4bc 268d 033d af54 48bd
00000110: f3d5 dbb9 c4f2 50bd f3e3 243c fb7c 493c
00000120: a21c 9a3c 430e 13bc 5146 0dbc e5bc 463c
00000130: 7d49 9b3b 3726 0bbb f9c6 b13b e22f 4bbb
00000140: 2a07 0000 82f8 0000 5219 0100 eb48 0100
00000150: 6bc2 0080 b14b 0180 0a9a 0100 379f 0000
00000160: 598e 0280 cdbc 0280 2313 0080 6d72 0000
00000170: 7411 0180 3464 0100 e4c9 0100 b33a 0100
00000180: 2ce8 653e 80e7 033e c77b b4bd 55a3 b23e
00000190: 3e53 d73e e861 b63e 7647 ee3e d8cb 40be
000001a0: 9616 9cbe a345 a93e 0bbd 11bf 09b5 143f
000001b0: 32eb a8bd 80bb afbe b9ec a33e 37dd 53bf
000001c0: d75d 793f c4a1 793f 1cdb 783f 80d8 793f
000001d0: aa73 793f c75d 793f 5989 793f 0cda 793f
000001e0: 09aa 793f 88d2 793f 1086 793f 7d45 7a3f
000001f0: ee85 793f 4b4c 793f ac1a 7a3f afe1 793f
00000200: 31c1 0b3f b88f a73e d7b2 8ebe 994e c53d
00000210: 9ce9 263f f045 f73e 2302 6e3e 6480 bd3d
00000220: 24e1 5b3e e891 8c3d 7f5c adbe bed9 f93e
00000230: 9213 26be 2cf2 e63d e004 823e a50e 30bf
00000240: 11e7 593f 0528 5a3f ff63 593f 1150 5a3f
00000250: 2d0a 5a3f a9dc 593f 511f 5a3f 8a57 5a3f
00000260: 9c1d 5a3f 6451 5a3f 4714 5a3f 1db7 5a3f
00000270: db0d 5a3f bada 593f 9b92 5a3f 405b 5a3f
00000280: 5146 083e 7b90 783e ea33 85bd 132e b33d
00000290: de53 de3e a8d4 263c 01a4 e83d 14ea 73be
000002a0: 873b 193e 62d7 ae3c 23be f7be c0b8 d03e
000002b0: 565b a53e 4e89 dcbd 5a18 1fbd 7af0 70be
000002c0: b6f6 293f cf33 2a3f 899f 293f e164 2a3f
000002d0: 4720 2a3f 7312 2a3f bc2e 2a3f 9168 2a3f
000002e0: df36 2a3f 9456 2a3f 1a28 2a3f 49a3 2a3f
000002f0: 8234 2a3f 8b03 2a3f ad94 2a3f cc67 2a3f
00000300: eeb2 943c 0158 a53a 798e 26bc d90b e33b
00000310: 223b ea39 68c8 953c 3106 c73a 6307 04bb
00000320: 084d bcbb 3aa0 5bbc 8866 b5ba 7544 c535
00000330: b456 643a aa0d 61bb 8529 3838 2322 4cb1
00000340: 9e5c 0000 48d1 0180 f229 0100 f83a 0200
00000350: 68dd 0100 8625 0180 f808 0380 eb7a 0100
00000360: 6163 0280 a53c 0280 6e52 0200 676a 0000
00000370: 0c5a 0100 3b0c 0280 3384 0200 c6b3 0100
00000380: 41de 0100 8951 0000 9e6d 0000 93e7 0100
00000390: 3028 0080 30b6 0100 2b8f 0080 e029 0100
000003a0: ac3d 0100 4f3f 0380 df46 0000 1498 0100
000003b0: 09fd 0000 dd7b 0080 682d 0000 c3d4 0080
000003c0: 3eb3 0000 2c52 0200 a781 0380 08e8 0080
000003d0: 8878 0280 ca4d 0180 3b0c 0380 b493 0200
000003e0: 3d72 0100 3163 0500 35a9 0200 cc84 0000
000003f0: 58ce 0580 5319 0300 d8be 0100 c4ed 0080

bias f4 [32]
-0.30086935 -0.28274938 0.21255533 -0.24809651 -0.41855034 -0.3565465 -0.27802527 0.19929364
0.13359892 -0.22446957 0.3677376 -0.50637203 -0.078451686 0.20284924 -0.30382442 0.52389896
2.88828 2.8863635 2.8851473 2.8886564 2.8874598 2.8853924 2.8886135 2.8887014
2.890358 2.8873997 2.8883805 2.8893929 2.888569 2.8877962 2.8870826 2.887483
00000000: 8c0b 9abe 87c4 90be 1ba8 593e 030d 7ebe
00000010: 3b4c d6be 438d b6be 5459 8ebe a213 4c3e
00000020: 28ce 083e 5adb 65be 1a48 bc3e 99a1 01bf
00000030: 47ab a0bd b6b7 4f3e e08e 9bbe 3e1e 063f
00000040: 94d9 3840 2eba 3840 41a6 3840 bfdf 3840
00000050: 24cc 3840 45aa 3840 0bdf 3840 7ce0 3840
00000060: a0fb 3840 28cb 3840 3adb 3840 d0eb 3840
00000070: 51de 3840 a7d1 3840 f6c5 3840 85cc 3840

weight f4 [16, 1]
-0.6496376 -0.5044409 -0.5094067 0.39802587 0.4665581 -0.66776717 -0.96944696 -0.053919196
0.90954363 -0.509676 -0.6639091 -0.7401505 0.9784558 -0.22489458 0.22558498 -0.6090367
00000000: a64e 26bf 0a23 01bf 7a68 02bf 0cca cb3e
00000010: b4e0 ee3e caf2 2abf ad2d 78bf 60da 5cbd
00000020: dad7 683f 207a 02bf f2f5 29bf 817a 3dbf
00000030: 147c 7a3f c44a 66be c0ff 663e d4e9 1bbf

bias f4 [16]
0.5720768 -0.40045846 0.996398 -0.7638596 0.50766194 0.11053455 -0.48552865 0.33194017
-0.6919434 0.7398876 0.6542945 0.07942641 0.62969637 -0.61944616 -0.29502016 0.036210775
00000000: a073 123f e408 cdbe f013 7f3f 4e8c 43bf
00000010: 22f6 013f f05f e23d 3697 f8be 10f4 a93e
00000020: 3423 31bf 4669 3d3f d87f 273f 50aa a23d
00000030: c833 213f 0694 1ebf e20c 97be c051 143d

weight f4 [16, 16]
-0.13172388 0.15591902 -0.14942776 0.14257064 -0.11715756 -0.08038597 0.20101616 0.07724157
0.18487313 -0.009646893 0.1703712 0.031288058 0.16515419 0.07735756 0.102010995 -0.21456322
-0.13287696 0.24386236 0.17220321 -0.1896551 -0.06268777 -0.15612665 0.052709192 0.12287575
-0.08523156 0.21363476 0.046705216 0.01228866 -0.06933957 0.05795884 0.080317706 -0.2498387
-0.061397597 -0.089932084 -0.182619 0.10855442 -0.06777936 -0.19551498 -0.02269581 -0.013365999
0.21574035 0.19629058 0.17597523 -0.040136024 -0.21676546 0.14542225 -0.2137233 0.049953908
0.097721875 0.05709845 0.058764547 -0.20531526 0.17923376 -0.17258403 0.19631407 0.18079928
-0.06153308 -0.07483122 -0.041930556 -0.09857939 -0.13942501 0.1914652 -0.01741761 -0.15023497
-0.004503891 -0.04994203 -0.0041916072 0.03572935 -0.14612186 -0.121855795 -0.21864599 -0.08157933
-0.17864585 -0.073838755 0.13084775 -0.08307628 0.041698307 -0.1782493 -0.11687116 -0.090265706
0.11547166 -0.026718512 -0.22869076 -0.0654009 0.009937376 0.013072491 0.033367813 0.20843506
-0.1814948 0.24325189 0.07282251 0.14969301 0.15695181 -0.03540331 -0.13146788 0.09353444
-0.13628471 0.034446478 -0.18548739 0.07391825 -0.04361473 0.058419466 0.18930331 -0.18890536
0.20536909 0.20686567 0.05954531 0.03584352 0.051069647 0.17935598 -0.0051534474 -0.15541512
0.22299975 -0.17617702 -0.08299482 -0.06961797 -0.11990346 -0.20628624 0.0008006394 0.22080603
-0.21378021 0.031073004 -0.12556627 -0.19353084 0.028955966 0.24230695 0.12682092 0.08869967
-0.05956915 0.18230483 -0.035052523 -0.11288805 0.15981519 -0.10260251 -0.13134763 -0.24909142
-0.19557981 0.22629723 -0.006165102 0.013498962 0.18331432 0.22955379 0.0079803765 0.11531922
-0.24807502 -0.18958765 0.00790742 0.0030885935 0.1072174 0.091030866 0.07652265 0.07797992
0.19467407 0.19365877 0.15671113 -0.17598966 -0.0834859 0.10649231 -0.20031366 0.12219837
0.12481457 0.10018411 -0.017243907 -0.17222524 -0.24418157 -0.13307941 -0.23414662 0.2231583
0.17517713 0.23950237 -0.24710238 0.2036826 -0.0026377887 -0.20928442 0.15506613 -0.103429854
-0.06035626 0.06842786 -0.19386807 0.042420924 0.011935353 -0.13325348 -0.23420316 0.029289186
-0.035952583 0.2156263 0.1925962 -0.21576911 -0.0059138834 -0.03098306 0.028851777 -0.23447847
-0.13061589 -0.0988701 0.15990084 0.0530715 0.0671995 0.22892416 0.22737932 -0.07737458
-0.082241 0.16145125 0.17349765 0.060710132 -0.14080761 -0.1126837 -0.20033324 0.1859082
-0.03873831 -0.14097154 0.21269742 -0.16546397 -0.05455175 0.19993272 -0.1424196 -0.16482043
-0.21483174 -0.10579111 -0.025086626 -0.14559269 0.18628529 -0.051952988 -0.22022738 -0.12017891
0.14143798 -0.10501239 0.11667827 -0.17891437 0.22189906 0.1198214 -0.006730497 0.15853345
0.07364938 -0.10538517 0.21598634 -0.12720649 -0.06599498 -0.20254865 0.2404247 -0.11760764
-0.02677314 -0.08511032 -0.02601035 0.08496058 0.025237441 0.21250433 0.07691163 -0.055207685
0.2280066 0.110210985 0.2120507 0.117373586 -0.12804058 0.053623915 0.13760054 -0.24256364
00000000: a0e2 06be 3ca9 1f3e 9703 19be 0afe 113e
00000010: 4ef0 efbd 66a1 a4bd 2ed7 4d3e d430 9e3d
00000020: 624f 3d3e 000e 1ebc ca75 2e3e e827 003d
00000030: 2e1e 293e a46d 9e3d 24eb d03d 76b6 5bbe
00000040: e610 08be 0eb7 793e 0a56 303e f234 42be
00000050: 7262 80bd aadf 1fbe 98e5 573d 48a6 fb3d
00000060: e28d aebd 12c3 5a3e f84d 3f3d 6056 493c
00000070: e801 8ebd 4066 6d3d 9c7d a43d b7d5 7fbe
00000080: 0c7c 7bbd 502e b8bd 7a00 3bbe c851 de3d
00000090: e8cf 8abd 1435 48be 90ec b9bc 10fd 5abc
000000a0: 0aeb 5c3e 6600 493e da32 343e ac65 24bd
000000b0: c4f7 5dbe 92e9 143e 48da 5abe 789c 4c3d
000000c0: 6822 c83d 10e0 693d 18b3 703d 2a3e 52be
000000d0: 0e89 373e deb9 30be 8e06 493e 7223 393e
000000e0: 1c0a 7cbd 1c41 99bd 60bf 2bbd fee3 c9bd
000000f0: 6ec5 0ebe 740f 443e 60af 8ebc 32d7 19be
00000100: 6095 93bb 0490 4cbd c059 89bb f058 123d
00000110: f8a0 15be 888f f9bd bce4 5fbe 1013 a7bd
00000120: f0ee 36be c638 97bd f4fc 053e e623 aabd
00000130: d8cb 2a3d fc86 36be 265a efbd 3add b8bd
00000140: 687c ec3d c8e0 dabc e92d 6abe e8f0 85bd
00000150: 60d0 223c 002e 563c b0ac 083d 0070 553e
00000160: c6d9 39be 0617 793e f823 953d 2049 193e
00000170: fab7 203e 1003 11bd 849f 06be fc8e bf3d
00000180: 388e 0bbe c017 0d3d 68f0 3dbe 7462 973d
00000190: 5ca5 32bd 4049 6f3d bad8 413e 6870 41be
000001a0: 464c 523e 98d4 533e c8e5 733d a8d0 123d
000001b0: 682e 513d 18a9 373e 40de a8bb 2425 1fbe
000001c0: 0c5a 643e c067 34be 30f9 a9bd de93 8ebd
000001d0: f28f f5bd b33c 53be 00e2 513a fa1a 623e
000001e0: 33e9 5abe d08c fe3c 7294 00be f32c 46be
000001f0: 1035 ed3c 501f 783e 58dd 013e 2ca8 b53d
00000200: c8fe 73bd 1eae 3a3e 3c93 0fbd da31 e7bd
00000210: 98a6 233e 4421 d2bd fe7f 06be d211 7fbe
00000220: 1346 48be 76ba 673e a004 cabb c02a 5d3c
00000230: c0b6 3b3e 2610 6b3e 20c0 023c 7c2c ec3d
00000240: 6107 7ebe 4423 42be 208e 013c 006a 4a3b
00000250: cc94 db3d 646e ba3d e8b7 9c3d f0b3 9f3d
00000260: a458 473e 7c4e 463e e278 203e a236 34be
00000270: a8fa aabd a418 da3d 061f 4dbe 2443 fa3d
00000280: c89e ff3d 542d cd3d 1843 8dbc d05b 30be
00000290: bc0a 7abe f845 08be 22c4 6fbe 9c83 643e
000002a0: a261 333e 1c40 753e 6808 7dbe 2c92 503e
000002b0: c0de 2cbb a84e 56be a8c9 1e3e 08d3 d3bd
000002c0: 2038 77bd e823 8c3d 5a85 46be 90c1 2d3d
000002d0: 808c 433c 9a73 08be f4d2 6fbe e0ef ef3c
000002e0: 0443 13bd 24cd 5c3e f037 453e 94f2 5cbe
000002f0: 40c9 c1bb 30d0 fdbc 905a ec3c 201b 70be
00000300: 2cc0 05be 687c cabd 0cbd 233e 8061 593d
00000310: e49f 893d 186b 6a3e 20d6 683e 9076 9ebd
00000320: f86d a8bd 7a53 253e 5ea9 313e 30ab 783d
00000330: df2f 10be b6c6 e6bd 2824 4dbe b85e 3e3e
00000340: 10ac 1ebd d85a 10be 5acd 593e 636f 29be
00000350: a871 5fbd 2abb 4c3e 72d6 11be b0c6 28be
00000360: dafc 5bbe 02a9 d8bd 7882 cdbc 4016 15be
00000370: 92c1 3e3e a8cc 54bd 4983 61be 5c20 f6bd
00000380: 1ed5 103e bc10 d7bd 04f5 ee3d 5435 37be
00000390: 8239 633e ec64 f53d 808b dcbb 9856 223e
000003a0: 7cd5 963d 2ed4 d7bd 862b 5d3e 6b42 02be
000003b0: 6028 87bd ea68 4fbe e431 763e 46dc f0bd
000003c0: 5853 dbbc 524e aebd a813 d5bc d0ff ad3d
000003d0: c0be ce3c bc9a 593e d883 9d3d 7421 62bd
000003e0: 907a 693e 4cb6 e13d d223 593e 9061 f03d
000003f0: 121d 03be c0a4 5b3d 28e7 0c3e 9a62 78be

bias f4 [16]
0.15798005 -0.09965633 0.11935225 -0.029168919 -0.20969705 0.17859545 0.10526276 0.0066352785
0.04695925 -0.012044668 0.12662908 0.20948362 0.18987015 0.14708522 0.166538 0.21315053
00000000: 86c5 213e 9e18 ccbd f46e f43d a8f3 eebc
00000010: d3ba 56be bae1 363e 0094 d73d c06c d93b
00000020: 5858 403d 0057 45bc 0eab 013e e082 563e
00000030: 526d 423e 829d 163e f088 2a3e 2244 5a3e

weight f4 [16, 16]
2.7802e-41 -5.2542e-41 -2.409e-42 6.1796e-41 1.6429e-41 1.33703e-40 2.87e-43 3.618e-41
-6.5159e-41 1.20485e-40 -1.8584e-41 1.01349e-40 1.1757e-41 -2.61593e-40 -9.132e-41 -5.8022e-41
-0.5030019 -0.4178304 0.98601615 -0.54847276 -0.032950766 -0.54788333 -0.13041626 0.82153803
0.9509718 -0.67714417 -0.11529605 0.15606594 -0.39600518 0.49582678 -0.22051205 -0.26760453
0.78448737 0.3793869 -0.121856116 0.41793078 1.1527205 0.6165903 0.29082814 -0.052001264
0.0144593725 0.17571065 -0.9316931 0.82710826 0.023639893 -0.14946754 0.37359786 -1.0521903
0.46465823 0.20667465 -0.08896271 0.2635523 0.93438387 0.6533853 0.4833434 -0.22245128
-0.039047085 0.253346 -0.6080666 1.0211687 -0.2800835 -0.27366456 0.030481942 -0.95988196
-0.5580628 -0.33866277 0.95791435 -0.6990435 0.0635123 -0.66824013 -0.08584973 0.7424089
0.99488395 -0.5320958 -0.15359016 0.10775156 -0.51906824 0.5214972 -0.27538016 -0.26535332
-1.44709e-40 -8.4913e-41 1.5112e-41 1.18211e-40 1.45575e-40 2.1022e-41 -1.3209e-40 1.53977e-40
1.39498e-40 -8.6962e-41 -9.913e-41 -9.7777e-41 5.735e-41 -1.32867e-40 -8.1385e-41 1.9611e-41
-0.46801963 -0.2773511 1.0104051 -0.63366586 0.014547444 -0.6152958 -0.08939211 0.84808874
1.0300788 -0.605815 -0.16049607 0.13902497 -0.36593977 0.5849949 -0.22464488 -0.19787462
-1.01643e-40 -8.626e-42 -5.316e-41 1.4949e-41 1.94467e-40 2.38211e-40 -1.52744e-40 2.97888e-40
2.20019e-40 1.20558e-40 -3.6828e-41 -1.40859e-40 9.1786e-41 -8.5919e-41 2.87485e-40 1.71679e-40
-0.54406685 -0.4299426 0.90481365 -0.65390694 -0.019957233 -0.6584512 -0.06519339 0.69830847
0.8733982 -0.59736675 -0.09231179 -0.019149788 -0.4150372 0.48539358 -0.32943296 -0.14018421
-0.1071893 0.45268577 -0.34575108 0.14259137 0.6107516 0.44050527 0.4571582 -0.058956593
0.21605556 0.21855311 -0.19356984 1.4098098 -0.60750866 -0.29279795 0.29262918 -0.9788757
-0.9525567 -0.5895478 0.92769414 -0.8186379 -0.37544715 -0.9226463 -0.10796843 0.7630309
0.62170774 -0.5178047 0.4514813 -0.34657246 -0.55666614 0.3087477 -0.58637804 0.2792836
-0.6527027 -0.2272371 -0.33756822 0.010374296 -0.77719206 -0.83826333 0.22259761 -0.3599307
-0.43818247 0.30768475 0.4978142 -1.172583 0.19029416 -0.43902883 -0.95533246 0.93242913
-0.57781994 -0.44356462 0.86774594 -0.6848752 -0.0645602 -0.77158433 0.031116795 0.70381796
0.77534056 -0.5450827 -0.031497344 -0.04808143 -0.4984427 0.4902152 -0.43749028 -0.038263787
-0.39784986 -0.8065612 0.5980628 -0.9287547 -0.045713626 -0.82380277 -0.29517263 0.6449724
0.81196856 -0.611893 -0.059896164 -0.1133338 -0.7926404 0.612094 -0.46388716 -0.015717804
0.38821325 0.3910553 -0.18257163 0.25446185 0.9201252 0.62994534 0.3337684 -0.13264528
0.015879452 0.1442861 -0.64766777 0.98052645 -0.15720841 -0.20884357 0.03792121 -1.1354104
1.18264e-40 2.6117e-41 7.574e-42 -1.27681e-40 1.161e-41 5.4785e-41 2.7255e-41 3.78e-42
-1.153e-41 3.1224e-41 -1.10316e-40 9.4854e-41 7.4849e-41 -9.32e-41 -1.01265e-40 -5.803e-41
00000000: 804d 0000 7792 0080 b706 0080 43ac 0000
00000010: cc2d 0000 b674 0100 cd00 0000 db64 0000
00000020: a3b5 0080 dd4f 0100 ce33 0080 851a 0100
00000030: c620 0000 37d9 0280 90fe 0080 bea1 0080
00000040: bcc4 00bf deed d5be 8e6b 7c3f b668 0cbf
00000050: 62f7 06bd 1542 0cbf d78b 05be 5150 523f
00000060: e372 733f 5259 2dbf 5620 ecbd c0cf 1f3e
00000070: 31c1 cabe 02dd fd3e e9cd 61be 7603 89be
00000080: 2ad4 483f 003f c23e b38f f9bd 06fb d53e
00000090: 588c 933f ddd8 1d3f 6de7 943e 47ff 54bd
000000a0: 01e7 6c3c 7eed 333e 7083 6ebf 5ebd 533f
000000b0: 73a8 c13c 050e 19be 3848 bf3e 2cae 86bf
000000c0: afe7 ed3e 85a2 533e 1532 b6bd 54f0 863e
000000d0: c833 6f3f 4244 273f c978 f73e 45ca 63be
000000e0: d6ef 1fbd 91b6 813e 41aa 1bbf a8b5 823f
000000f0: 1b67 8fbe c31d 8cbe 44b5 f93c d3ba 75bf
00000100: 34dd 0ebf 3565 adbe e039 753f 84f4 32bf
00000110: bd12 823d c911 2bbf fcd1 afbd 820e 3e3f
00000120: b7b0 7e3f 6e37 08bf bd46 1dbe daac dc3d
00000130: a8e1 04bf d780 053f a1fe 8cbe 64dc 87be
00000140: 6493 0180 b4ec 0080 202a 0000 8649 0100
00000150: ce95 0100 9a3a 0000 3770 0180 3aad 0100
00000160: dd84 0100 6af2 0080 5614 0180 9010 0180
00000170: de9f 0000 6172 0180 dee2 0080 ab36 0000
00000180: 45a0 efbe f700 8ebe f454 813f ed37 22bf
00000190: 6758 6e3c 0784 1dbf 3613 b7bd 581c 593f
000001a0: 9fd9 833f b116 1bbf 1559 24be 905c 0e3e
000001b0: 755c bbbe 3ac2 153f 4f09 66be a59f 4abe
000001c0: 571b 0180 0c18 0080 3094 0080 ac29 0000
000001d0: 181e 0200 0998 0200 caa9 0180 643e 0300
000001e0: 5365 0200 1150 0100 a966 0080 a888 0180
000001f0: ddff 0000 82ef 0080 6421 0300 92de 0100
00000200: f747 0bbf 7021 dcbe dea1 673f 7266 27bf
00000210: 5a7d a3bc 4290 28bf 1d84 85bd 58c4 323f
00000220: 0697 5f3f 07ed 18bf f70d bdbd 04e0 9cbc
00000230: c27f d4be 8285 f83e 70ab a8be 738c 0fbe
00000240: 1086 dbbd 6ec6 e73e 4906 b1be 7903 123e
00000250: 385a 1c3f e889 e13e a410 ea3e 787c 71bd
00000260: ab3d 5d3e 63cc 5f3e 2c37 46be a674 b43f
00000270: b085 1bbf 9de9 95be 7ed3 953e 9997 7abf
00000280: c2da 73bf 9bec 16bf 5d7d 6d3f 4192 51bf
00000290: 9c3a c0be 8c32 6cbf 8d1e ddbd fe55 433f
000002a0: 3d28 1f3f d98e 04bf 8f28 e73e f271 b1be
000002b0: ac81 0ebf 2e14 9e3e df1c 16bf 43fe 8e3e
000002c0: 8617 27bf d8b0 68be bed5 acbe f4f8 293c
000002d0: 0ff6 46bf 6d98 56bf a1f0 633e d648 b8be
000002e0: 7459 e0be db88 9d3e 81e1 fe3e 3317 96bf
000002f0: 79dc 423e 63c8 e0be ab90 74bf adb3 6e3f
00000300: 02ec 13bf e71a e3be 9924 5e3f fb53 2fbf
00000310: 2338 84bd 8d86 45bf a6e8 fe3c 6a2d 343f
00000320: b87c 463f 8a8a 0bbf 5c03 01bd 09f1 44bd
00000330: e233 ffbe 7dfd fa3e bafe dfbe 7dba 1cbd
00000340: fab2 cbbe cb7a 4ebf a51a 193f dec2 6dbf
00000350: 363e 3bbd bde4 52bf de20 97be e91c 253f
00000360: 2cdd 4f3f 05a5 1cbf ae55 75bd 8d1b e8bd
00000370: 7bea 4abf 31b2 1c3f 9e82 edbe a0c2 80bc
00000380: e3c3 c63e 6638 c83e 0ff4 3abe d348 823e
00000390: 538d 6b3f 1944 213f b1e3 aa3e 2ad4 07be
000003a0: a015 823c bcbf 133e 8ecd 25bf c803 7b3f
000003b0: 3efb 20be 17db 55be 4553 1b3d 2155 91bf
000003c0: ac49 0100 ce48 0000 1d15 0000 ec63 0180
000003d0: 5d20 0000 b898 0000 fa4b 0000 890a 0000
000003e0: 2420 0080 0a57 0000 8433 0180 6a08 0100
000003f0: a6d0 0000 ce03 0180 491a 0180 c4a1 0080

bias f4 [16]
-6.669852e-14 0.21572173 -0.36728725 -0.15530756 0.1884381 -3.881631e-07 0.2203152 -5.9321844e-12
0.18515565 -0.076984294 0.22282614 -0.8961857 0.20793149 0.2201343 -0.16825025 -2.308573e-25
00000000: 1431 96a9 28e6 5c3e 130d bcbe f208 1fbe
00000010: ebf5 403e bb64 d0b4 4f9a 613e 5eb8 d0ac
00000020: 7199 3d3e f1a9 9dbd 892c 643e 6d6c 65bf
00000030: feeb 543e e36a 613e cb49 2cbe cde4 8e96

weight f4 [2, 16]
1.52358e-40 0.47522938 -0.567007 -0.44913808 0.58358216 8.909e-41 0.4891463 -9.9082e-41
0.48392275 -0.48757848 0.5981572 1.0684136 0.46511665 0.50854015 -0.47714317 1.4612e-40
1.37692e-40 -0.6127973 0.64694333 0.46133628 -0.43473652 -1.2384e-40 -0.47950628 1.67179e-40
-0.5699388 0.46727818 -0.3239516 -1.0683826 -0.6006825 -0.50870633 0.47371265 -1.42261e-40
00000000: b6a8 0100 4451 f33e 5f27 11bf 6df5 e5be
00000010: a465 153f 59f8 0000 6271 fa3e 3314 0180
00000020: b9c4 f73e e3a3 f9be d520 193f c7c1 883f
00000030: c523 ee3e b02f 023f 1c4c f4be 5397 0100
00000040: d47f 0100 49e0 1cbf 149e 253f 4534 ec3e
00000050: c995 debe 3759 0180 d981 f5be 07d2 0100
00000060: 82e7 11bf 163f ef3e fcdc a5be c3c0 88bf
00000070: 54c6 19bf 943a 02bf 778a f23e 918c 0180

bias f4 [2]
-0.2742405 0.35375762
00000000: 4069 8cbe b81f b53e
